model_lenet_5.pt (torch, 252394 bytes, 18 tensors)

layer1.0.weight f4 [6, 3, 5, 5]
00000000: 031c a23c f5b3 debd d176 c0bd 428f 8e3c
00000010: b8ce 54bd a8de 29bd 6df7 50be ae9a a23c
00000020: de1f 33bd 0826 91bd f24f f2bd 7930 69bc
00000030: 69a4 e5bd ca60 0c3d 22c3 42bd 4205 03be
00000040: e965 e3bd dcc8 c0bd 5b61 24be 4ef8 5c3d
00000050: 458e 7fbd 2888 903d 668b 44bb 02bb 543d
00000060: 311e 81bd 4a2b a6bd 685b 6abd f614 d9bd
00000070: c748 d73d 6a3b 873d 146e 1fbd ef28 e33b
00000080: f454 473d fa65 153e 781b fd3d 0655 173d
00000090: deeb 263e ee21 6a3d 9f8f d03d c981 023e
000000a0: 6f0e 293d ba8f c4bd b724 d0bd 6799 b93c
000000b0: 0a29 8ebc 7d9a 65bc 2bfe 74bd ef92 04be
000000c0: 155f 9938 071c 1abd 5ee9 e63d 8ff2 1dbd
000000d0: 0f4e 1bbe 4c29 da3d 4c4a c13c b306 f53d
000000e0: cf4f 8ebd 1459 56bd 40fb b93d abad ba3b
000000f0: 5c98 463e 4a91 2b3e d350 e33d 11d7 943e
00000100: c6eb 663c fb60 bf3d 9e34 7ebd dea7 b93d
00000110: 5d04 5c3d 9de0 8a3b 05f6 463d 8c8c 753d
00000120: 00a0 e43c db5f 133d 0df0 04be 3001 96bb
00000130: c8af fabd e52f 0abe daa4 00be 4e9a 76bc
00000140: 5e9a 3cbe f2bd 01be 4d5a 0a3e 205c 103e
00000150: 5495 f13d c329 e0bb f493 083e 7c39 563d
00000160: f4bc 533d 76e0 d43d dafc 1c3d ebad 9c3d
00000170: 24c9 04be a53e 1d3d 5e77 6b3d b364 31bd
00000180: fa7d b93d 5189 54bc a49b d7bd 2bc8 193e
00000190: 9176 16be 309b 0ebe 7bbe 88bd 79a5 3fbe
000001a0: 089c 3fbe 9cd9 4fbd 7ccf b4bb db9a 363d
000001b0: 33bc 2ebd 8a27 e3bc 60d4 79bd 4f96 803d
000001c0: 96d4 513d b823 e1bd ad7c 283d f493 a33c
000001d0: 3667 0b3d 8431 8f3d 9975 c8bd c2d1 2cbe
000001e0: 521e c93d 71e5 44bc 508c dfbd 32b0 463d
000001f0: b372 b4bc b3c1 b73d 6763 b0bd 0b93 d0bd
00000200: d933 783d 0a5c 723b 7345 f23d 1ab3 1eb9
00000210: d774 e53d b914 db3d 1a99 413d da3b 3fbc
00000220: 82ff 103c faf3 8a3d 60f2 d33b 1ad8 f5bd
00000230: 6205 a33c 8dc0 093c 839e 043c 47f2 cebd
00000240: 02e0 c33c ebf2 cdbc 414d c0bc 4959 f23c
00000250: a218 dc3d caf0 ec3d 6cc6 1fbe 0b3e ddbc
00000260: 9192 833d f9f3 593e aa07 373e dbf4 78bd
00000270: 9005 ecbd 6be9 0e3e c574 1d3e 9e3a c43c
00000280: 1f6e 3c3d f1d9 033e ff95 b83d e4c2 173e
00000290: 98dd a93d 6fbf 21bd 1940 43bd d2b1 c53d
000002a0: ff73 173d 2e1f f93d 2f28 f83d ae97 853c
000002b0: 1b5c 533d 3003 95bb 14ce 24bc ace5 23be
000002c0: 1bde 0abe a77f ffbc dd15 f9bb df13 ec3c
000002d0: 7bd2 a63d 3d9e 79bb 71eb c5bd 1d35 f1bd
000002e0: f17f c33c 07ac 713c ee7b d4bc f81c adbd
000002f0: 64a6 fcbd 0b16 88bb 47dc 5abd 3c54 60bd
00000300: 65d6 c53d f5db 9a3d d263 963d 4884 c13c
00000310: 360e cabc 1c67 bd3d 6f5b 7abc 66d2 bd3d
00000320: 0099 213d 6dbd 113c e736 2ebe d2d1 efbd
00000330: ab3d 1e3e 9e34 9d3d 0b0a d6bd 3e3c b4bc
00000340: 7851 3c3d 67a6 3c3e fcfb 88bc eb02 813b
00000350: 7ca0 45be 6b98 ccbc 3819 1c3e 979e b23c
00000360: da32 9bbd 9df9 15be f9ae 03be 1641 68bd
00000370: 0801 cbbb e7b8 a2bc ebc8 73bd 081f 02bd
00000380: defb 47bd 0e7e a23d a059 333e f97a 4dbd
00000390: 2f2b b63c 9ec6 8fbd c7b5 893d c3b8 9f3c
000003a0: fc32 04be 5e8d 9f3d b7bc 7fbd 38d2 02bb
000003b0: 5558 65bd d121 33be e482 683d d207 ddbd
000003c0: eb62 42bd 278c bc3d c371 95bd ba02 eb3c
000003d0: ad80 e6bc e7f2 11bd c303 d9bc cfd5 8bbc
000003e0: 3b50 eb3c fc8f 3cbc 1880 bc3c 8001 3c3e
000003f0: adcc 203e 3609 daba 5b21 35bd 1b12 913d
0.019788748 -0.10874168 -0.093976624 0.017402295 -0.051954955 -0.041472107 -0.20406885 0.019849148
-0.043731563 -0.07087332 -0.118316546 -0.014232748 -0.112129994 0.034271993 -0.047549374 -0.12794974
-0.11103422 -0.09413311 -0.16052763 0.05394774 -0.06239154 0.0705722 -0.0029990315 0.051936157
-0.06304587 -0.081137255 -0.057216078 -0.10599701 0.10511928 0.06603129 -0.038923338 0.00693237
0.048665002 0.14589682 0.12358755 0.03694632 0.16300914 0.057161264 0.101836435 0.12744822
0.04127353 -0.09597726 -0.10163253 0.022656156 -0.017353553 -0.014013884 -0.059812706 -0.12946676
7.313319e-05 -0.037624385 0.1127498 -0.0385614 -0.15166496 0.10652408 0.023594998 0.119641684
-0.06948816 -0.052331045 0.09081125 0.0056969724 0.19394058 0.16754642 0.110994 0.29070333
0.014094299 0.093446694 -0.0620619 0.09065221 0.0537151 0.004238202 0.048574466 0.05994849
0.027908325 0.035980087 -0.12982197 -0.0045777783 -0.12240559 -0.13494833 -0.12562886 -0.015051438
-0.18418261 -0.12670115 0.1351101 0.14097643 0.1179606 -0.006840916 0.1333769 0.052300915
0.05169387 0.10394375 0.038327076 0.0765036 -0.12967354 0.03838982 0.057486884 -0.043308925
0.09057231 -0.012972192 -0.10527733 0.15017764 -0.14693667 -0.13926387 -0.06676956 -0.18715467
-0.18711865 -0.050744638 -0.005517898 0.044581275 -0.04265995 -0.027728815 -0.060993552 0.06278669
0.05122813 -0.10993141 0.041134525 0.01996801 0.034033976 0.06991866 -0.09788055 -0.16876891
0.09820236 -0.012017594 -0.10915434 0.048507877 -0.02202735 0.08972492 -0.086127095 -0.10184296
0.06059632 0.003698113 0.11829653 -0.00015134775 0.11203926 0.10697312 0.04726515 -0.011671985
0.00884998 0.06784816 0.0064681023 -0.12004109 0.019900028 0.008407724 0.008094433 -0.101048045
0.023910526 -0.025140246 -0.023474338 0.02958359 0.10746886 0.11569364 -0.15603036 -0.027007123
0.0642444 0.21284474 0.17874017 -0.060780387 -0.115244985 0.1395623 0.15376575 0.023953732
0.046003457 0.12876107 0.090129845 0.14820439 0.08294219 -0.039489206 -0.04766855 0.09653057
0.036975857 0.1216415 0.121170394 0.016307678 0.05160151 -0.004547499 -0.0100588985 -0.16005582
-0.13561289 -0.031188799 -0.0076014833 0.028818069 0.08145615 -0.0038088702 -0.096640475 -0.11777709
0.023864718 0.014750487 -0.025938 -0.08452791 -0.12336424 -0.0041530184 -0.05343273 -0.054767832
0.09660033 0.07561485 0.07343258 0.023622647 -0.02466498 0.09248182 -0.0152805885 0.09268646
0.039452553 0.00889526 -0.17013131 -0.11709942 0.15453212 0.076760516 -0.10451134 -0.022001382
0.045976132 0.18422852 -0.016721718 0.0039371154 -0.19299501 -0.024975022 0.15243995 0.021804137
-0.075780585 -0.14646001 -0.12859716 -0.056702696 -0.0061951913 -0.019863559 -0.059517782 -0.031767875
-0.048824184 0.07934199 0.17514658 -0.050166104 0.022237388 -0.07020305 0.067241244 0.019497281
-0.12910074 0.077906355 -0.062435832 -0.0019961726 -0.055992443 -0.17493369 0.056765452 -0.10792507
-0.047457617 0.092064194 -0.07297089 0.028687824 -0.02813753 -0.03563204 -0.026491052 -0.017069725
0.02872478 -0.011508938 0.023010299 0.18359947 0.15703078 -0.0016634825 -0.044221263 0.070835315

layer1.0.bias f4 [6]
00000000: 5dbb cbbd f3dc 603d 3659 76bd c84b 063e
00000010: 6379 983c 91f3 823d
-0.09947846 0.054898214 -0.060143672 0.13114846 0.01861257 0.06394113

layer1.1.weight f4 [6]
00000000: 647e 793f ed6b 863f 5455 863f ad6c 803f
00000010: b28d 7a3f 2ed5 6c3f
0.9745848 1.0501686 1.049479 1.0033165 0.9787246 0.92512786

layer1.1.bias f4 [6]
00000000: 5f8e 9ebd b9f2 133e da3a 103d d8c5 05bd
00000010: de6f 7b3d c2b9 fdbd
-0.07741999 0.1444806 0.035212375 -0.03265938 0.06138598 -0.12388946

layer1.1.running_mean f4 [6]
00000000: a06b 98be 286d c93d 9e82 2dbc 69f2 acbc
00000010: b533 003e 417f 9ebe
-0.2976961 0.09835273 -0.010590224 -0.021111684 0.12519725 -0.30956462

layer1.1.running_var f4 [6]
00000000: 0fa1 743e 0ccd ca3d 4037 663e ab29 1b3e
00000010: 0894 0d3e 5446 dc3e
0.23889564 0.09902391 0.22482014 0.15152614 0.13826 0.43022406

layer2.0.weight f4 [16, 6, 5, 5]
00000000: 180c 973d 4193 9fbd 648e b2bd 0448 ea3c
00000010: a36c 41bd 1d64 453d c235 803d 916c 81bd
00000020: 4a26 58bd 9065 cbbd cdec 9ebd b971 9a3d
00000030: bcc9 1e3d 7a05 873c d38f 62bd 274e eabd
00000040: 774e db3d f356 183e d4c3 953d c5ed 30be
00000050: c0c1 143d e8df a03d e307 de3d 3281 6d3c
00000060: 8346 efbd 0c2d f2bc be92 e63d ecb9 82bd
00000070: 5258 cdbd 8534 fb3d a555 2bbd cfa9 fc3c
00000080: 035c 53bd a26b aebd 5f36 1a3e 660e 21bd
00000090: 1191 debc 09b9 5b3d 1b29 31bd 44ab 033d
000000a0: 19a0 71bd 067b 6c3d 1093 b93c a3d4 9f3b
000000b0: 19b4 10be 660a c0bd ebdc d0bd 5a20 e0bd
000000c0: 79f2 503d e561 be3b ab85 0ebe 962b 933d
000000d0: d7cf 9a3d 1c1b 713d 999a 95bd bd9a e1bd
000000e0: 81d9 b43d dbc8 5bbc ef08 383e 8612 6cbd
000000f0: 6b18 90ba 3513 3dbd f9ba c9bd 6f51 043d
00000100: 576e e6bc 4052 1d3d 7091 1abd b7ee 29bd
00000110: 3f51 833d 0201 2abd fb01 d33d 6d3d 1bbc
00000120: 3175 e6bd d0ec 8ebd 95e3 ee3d dae4 c63d
00000130: 33bd b43d 566d abbd 92fc 96bd a43b 45be
00000140: 100a e13d d776 8fbd 4e8e 07bd 6dda ad3d
00000150: d47c ddbd 1a24 053d 579b ccbb 9e4a 3ebb
00000160: 4d1f bd3d 04ce 473d 9ad5 bfbc 9aee 2e3c
00000170: 48f9 723d 9b1c 873d 1f08 c03d 2b6c 8fbc
00000180: 542a 9fbd 13ca 9dbd 99a5 bf3d bcd7 08bc
00000190: 6246 b0bd a9bb c1bc c0e4 35bd a094 d13d
000001a0: 88a7 a2bd 92c6 53be 3824 09be f8e8 d0bc
000001b0: fc7d dc3d c1a7 af3d 9eca abbd 3530 b9bd
000001c0: cc6a 0fbe a5f6 043e 600c be3d 06a4 403d
000001d0: f10f 06bd c3e1 3cbd 133a 333d 5037 02bd
000001e0: fd45 783d be6b 8d3c eec4 ea3b c6cc 393d
000001f0: c277 273d 24fa c83c 32bf 2cbe bb59 adbd
00000200: cb5e 75bd 8cf7 04be 9216 ea3d 304a 813d
00000210: dec0 01be 9087 50bd 5886 21be 257f a43d
00000220: 2fe5 513d eba8 f8bb d4aa d73d b599 313b
00000230: 93ac 453d e8f1 a23d 0287 c9bc fd03 403d
00000240: 4b0a 683d bab2 d23a 4abd 8f3b 9314 be3c
00000250: 5062 4b3d 4e06 b5bb b526 66be be7f 0cbe
00000260: 839a 5f3c 79ec 94bd b3ce 98bd 077f 39be
00000270: f308 1cbe 1331 043d fafb 3e3d 26b9 f73d
00000280: a4d2 3bbe 2d72 04be fb16 7a3d 138d 993b
00000290: 4c93 ff3d 0873 053d 927d 723d de01 e63d
000002a0: 01b5 fa3c 7dbb cf3d 866e c93c 6516 273d
000002b0: 5f6e f63d 60fc 6d3d 6c9a 833d b16e ff3b
000002c0: 6f2b 42bc 27e7 9e3d ced4 83b9 fdb1 783d
000002d0: 8673 863d 8b82 ec3d 9e09 99bd 20a4 2f3d
000002e0: cda7 313c ba8c efbc 8914 763d a1bf 0bbe
000002f0: c1d4 f4bd 4132 053d 9c1f 4ebd 0972 9dbd
00000300: e11a a8bc e86d 20be 9674 67bc b532 ce3d
00000310: 69fd 46ba ed24 cd3c ecfe 4ebd a97f 50bd
00000320: 9936 86bd d045 07bd 9a68 d1bd f89a 07bd
00000330: 2567 7bbd 5409 9d3d 53c0 12bd 3515 133e
00000340: d071 34be a7d1 b53d b184 4b3d 8044 b0bc
00000350: a7d7 133e 83bf c43c 5ee0 9b3d 19fb 0a3d
00000360: e5c7 44be 9936 27bd 6cfc a7bd 8ccf 64bd
00000370: d022 01bc bb97 52be f194 bb3c dbd1 c2bd
00000380: 29cd 21be 1b1c b2bc aab8 b13d 0deb e5bd
00000390: 0a5a 183d b8b1 1c3d 15c2 8dbd c85f 9c3d
000003a0: 08bb 913c dac5 8abd 0bef 1cbd fd02 db3d
000003b0: 234b cb3d 60b6 c4ba fea2 273d 6736 9238
000003c0: 98c2 30bb 11ab 55bb 524b df3d 0ea4 ee3d
000003d0: 9dcb a93d 8ed0 2ebe 4b4f 8e3d ed58 be3c
000003e0: ba22 e83d f5bf 813b 0b12 953d e209 c43d
000003f0: a7d9 053d 5ac0 81bd 8628 dbbc d166 3a3d
0.073753536 -0.07791758 -0.08718565 0.028598793 -0.047222745 0.04819118 0.062602535 -0.063195355
-0.05277089 -0.09931481 -0.0776001 0.07541222 0.038766608 0.016482104 -0.055312943 -0.114406876
0.10708325 0.14876918 0.07312742 -0.17278202 0.036317587 0.07855207 0.10841348 0.014496135
-0.11683371 -0.029562496 0.112584576 -0.06383118 -0.100266114 0.12265877 -0.041829724 0.03084269
-0.05160142 -0.08516623 0.15059803 -0.039320372 -0.027168782 0.05364326 -0.04325209 0.032145754
-0.05899057 0.05773451 0.022653133 0.004877643 -0.14131202 -0.09376983 -0.10198387 -0.109436706
0.05101249 0.00581001 -0.13918178 0.07186048 0.075591736 0.058863744 -0.07304878 -0.11015842
0.08830548 -0.013414587 0.17972158 -0.057634853 -0.0010993605 -0.046160895 -0.09850115 0.032304224
-0.028128786 0.038408518 -0.037736356 -0.04148742 0.06411981 -0.041504867 0.10303112 -0.009475094
-0.11252821 -0.06978762 0.116645016 0.09711619 0.088251494 -0.083704636 -0.07372393 -0.19261032
0.109882474 -0.07005089 -0.033094697 0.08488927 -0.10814825 0.032505132 -0.006244104 -0.0029036175
0.09234486 0.048780456 -0.023417283 0.010677004 0.059319764 0.06597253 0.09376549 -0.017507633
-0.07771745 -0.07704558 0.09357757 -0.008352216 -0.086071745 -0.023649054 -0.044407606 0.10233426
-0.0794211 -0.20681217 -0.13392723 -0.025501713 0.10766217 0.085769184 -0.083882555 -0.09042398
-0.14005584 0.12984712 0.09279704 0.047031425 -0.032730047 -0.04611374 0.043756556 -0.03179103
0.06061362 0.01726329 0.007164589 0.045361303 0.040885694 0.024533339 -0.1686981 -0.0846438
-0.059904855 -0.12985057 0.11430086 0.06312978 -0.12671229 -0.050910532 -0.15773904 0.080320634
0.051243957 -0.007588496 0.1053063 0.0027099673 0.048260283 0.07956296 -0.02460051 0.046878804
0.05665044 0.0016074993 0.0043865787 0.02320317 0.049654305 -0.005524433 -0.22475703 -0.13720605
0.013647678 -0.07271666 -0.074613 -0.18114863 -0.15237789 0.032273363 0.046627022 0.12095861
-0.18342072 -0.1293418 0.061057072 0.004686007 0.124792665 0.032580405 0.059201784 0.11230825
0.030603888 0.101431824 0.024588834 0.04079284 0.1203277 0.05810201 0.06425938 0.007795178
-0.011851176 0.077589326 -0.0002514482 0.060716618 0.06565003 0.115483366 -0.074725375 0.04288113
0.0108432295 -0.029241908 0.060078178 -0.1364732 -0.11954642 0.03251863 -0.050323114 -0.07687766
-0.02052063 -0.15666926 -0.014126917 0.10068265 -0.00075908616 0.025042022 -0.05053608 -0.050902996
-0.065533824 -0.033025563 -0.10225029 -0.033106774 -0.061377663 0.07667795 -0.035827946 0.14363559
-0.17621541 0.08877879 0.04968709 -0.021517038 0.14437734 0.024017101 0.07611154 0.03393087
-0.19216879 -0.040823553 -0.082024425 -0.055861995 -0.007881835 -0.20565693 0.02289817 -0.09512683
-0.15800919 -0.021741917 0.086778 -0.11226473 0.037195243 0.038255423 -0.06921784 0.07635456
0.017789379 -0.067760184 -0.038313907 0.10693929 0.099264406 -0.0015007965 0.040926926 6.971956e-05
-0.0026971456 -0.0032603184 0.10903038 0.11652385 0.08290789 -0.17071745 0.06948718 0.023235762
0.113347486 0.0039596506 0.07278832 0.095721975 0.032678273 -0.06335516 -0.026752722 0.04550821

layer2.0.bias f4 [16]
00000000: 9cb0 57bd a866 d0bc 1a0f 49bd 2057 10bd
00000010: 1794 973c 5fc2 503d 79e3 25bd d173 933c
00000020: 55fc 6b3d e070 81bd 05ce cdbd 4bed 92bd
00000030: 8f4a 89bd ea08 953d fdc7 0dbd ed43 77bd
-0.052658662 -0.025439575 -0.049086668 -0.03523934 0.018503232 0.050966617 -0.040500138 0.017999562
0.05761369 -0.06320357 -0.10049061 -0.07174166 -0.06703674 0.07277091 -0.03461455 -0.060367513

layer2.1.weight f4 [16]
00000000: b671 863f 3a57 803f 3093 7f3f 8769 843f
00000010: 383e 8e3f ae4b 893f 3dad 843f f201 843f
00000020: 2a90 8b3f 2180 7d3f 5990 863f 452b 8e3f
00000030: 8f1d 8b3f fd6a 823f ea15 933f 32f6 773f
1.0503452 1.002662 0.99833965 1.0344704 1.1112738 1.0726221 1.0365368 1.0313094
1.090337 0.99023634 1.0512801 1.1106955 1.0868396 1.01889 1.1491063 0.9686004

layer2.1.bias f4 [16]
00000000: 32a4 43be d2f5 3abe ce63 07be ff8a 39be
00000010: a156 2fbe 94c6 74be a950 96be 919e 85be
00000020: 73fe 60be df63 57be 1319 39be 4db6 87be
00000030: b64e 15be 1588 fcbd 304b 6cbe 497f 80be
-0.19105604 -0.18257836 -0.13221666 -0.18119429 -0.1712289 -0.23903877 -0.29358414 -0.2609754
-0.21972065 -0.21034192 -0.18075971 -0.26506272 -0.14580807 -0.12330643 -0.23075557 -0.2509711

layer2.1.running_mean f4 [16]
00000000: 55aa 08bf fb29 edbe ff10 d43e 8f36 1240
00000010: 13d7 b2bd fa1d 163e 031a 4dbe 1584 4bbf
00000020: 0211 6b3e a0b9 d1bd 99e3 b2be 6821 133e
00000030: 2337 ebbe 2182 aabc 0485 803d 41db adbf
-0.53384906 -0.4632109 0.41419217 2.28458 -0.087324284 0.14659873 -0.20029454 -0.79498416
0.22955707 -0.10240483 -0.34939268 0.14368212 -0.45940503 -0.020814003 0.06275371 -1.3582536

layer2.1.running_var f4 [16]
00000000: 8d58 183f 5dbe 593f 3f4e c53f 7c95 d43f
00000010: 1397 283f 6690 453f 75da d13e 8e48 523f
00000020: 540e 083f e60b 223f e4eb 4a3f f9e2 043f
00000030: df59 413f 0550 bf3f 8c52 373f 06e6 bc3f
0.5951012 0.85056096 1.5414504 1.6608119 0.6585552 0.7717346 0.40986982 0.8214196
0.53146863 0.63299406 0.7926619 0.5190883 0.7552776 1.4946295 0.7161033 1.4757698

fc.weight f4 [120, 400]
00000000: 079a 533d 11a3 a7bc 70f0 2c3d c66a a73d
00000010: a40c 60bd 9c25 8fbc 7b77 6bbc c323 873c
00000020: 5d04 b83c 5d8a b93c 507b 86bd 1c7e 88bd
00000030: 9c9a c2bc 9d82 493c 2fdf 99bc 5740 9cbd
00000040: 3570 d9ba b4d8 71bc 69f3 343b a978 9b3d
00000050: 1fd3 c4bc 7f2d 22bc fe83 373d d0b9 90bc
00000060: ed62 533d 3043 fe3c 4b73 853d d571 a13c
00000070: 786b 13bd f302 803b 718f 2b3c 35a1 493d
00000080: 22bf ba3c f974 923b 036f 33bc 61eb 60bd
00000090: c837 61bc 585c 9cbc 944a 4abd c2f3 12bd
000000a0: 9a49 dcbc f7d1 853c 23b5 8dbd 73b9 8ebd
000000b0: d8f6 e03c 1d2a 083d ba07 c13c 02dd 4f3d
000000c0: 3c27 663d 2467 9c3d 467e 56bc 2dda 11bd
000000d0: b5ba ba3b c50a fc3c 0afe 583c 9521 2f3d
000000e0: 52c7 40bd 67d0 47bd 223b b53d 113a a33d
000000f0: e6bf 63bd 8897 9cb9 c89e 58bd bdc2 293b
00000100: 2fb3 96bb f00a 633c 9cc8 13bd 42ab 17bb
00000110: 5865 c53c f692 42bd 2d66 a3bd 395f d5bc
00000120: e5bc 4e3d 213a 263d 121e cdbb d2f5 05bd
00000130: 03cf 74ba 2aaa 263b 326a 053d 7f57 fd3c
00000140: a0bb 88bd b0d2 09bc d29b 5cbd 3d36 11bd
00000150: 9c15 2cbd 9aaf e9bc 51b5 333d 9882 2fbd
00000160: b6fb 94bb bf17 4ebd 65fc 59bd ed31 2cb9
00000170: 7409 bbbd 58b2 bc3c 390b bcbc 9d0a 82bc
00000180: e57d 2bbd 2c8b 263c 3982 103c 84db 00bd
00000190: 94ae 733c 2741 f1bc c155 43bd 99ee b3bc
000001a0: 78a5 d83c 9a26 e23c 721f 943d 50d7 7cbd
000001b0: 9bc3 e7bc 0f48 033c f5d4 2cbd 47d7 863d
000001c0: 39f5 31bd 8c66 723d ca2e 8ebb f66f 3fbd
000001d0: 20cd 0fbd 2291 ebbb 3568 92bd 6a0b 8fbd
000001e0: ea5c 163d f53e 2c3d 570c f3bc 2eb8 2cbc
000001f0: 9ded a3bd 0b8a 6e3b 11bb 3ebc c7e5 98bd
00000200: ff62 aabb 5202 01bd 3884 23bd e014 453c
00000210: 7a8f 84bc d9ca 08bd 485a 823d 9d62 97bd
00000220: 1d52 23bc 2623 b4bb 8bc8 1c3d 00e3 21bc
00000230: 7b5d bebc 3746 c93c 38dc cebd cfd7 d63c
00000240: 4f87 55bc 9df1 b3bb f115 afbc aad8 29bd
00000250: 5242 4d3d 9074 dabc 780e 60bd 1c1d f4bc
00000260: b0eb 843c 1199 09bd 086e 9dbd c00a 083d
00000270: e091 2ebb f1d6 0bbb c909 cd3c ceb0 50bd
00000280: c181 4cbd b327 32b9 ca43 38bd bb46 743b
00000290: 2d6d 913c 0a91 3e3c acd2 e83c 35ee 953c
000002a0: 3f21 5e3c cd92 25bc 19ed 94bc ac32 3fbd
000002b0: ada8 553b e0a3 bd3a 526d 263d 5e8c 8a3c
000002c0: f616 8abc 4b32 18bd e591 6bbd e752 bdbb
000002d0: ffe0 a6bd 6ed1 30bd 3b76 2cbc 11dc 863a
000002e0: 5449 293c 2ec2 bdbd 8881 e7bc 23d4 bcbc
000002f0: 728a d1bc 1577 7bbd 009c eebc 9ebc a4bd
00000300: 11a0 67bd 648b 2abb 23d7 963c 82f9 9a3c
00000310: 4791 d0bc 9543 fabb 8376 0fbd 0ae5 a6bb
00000320: f217 143b 63fc 8abd 11ea b23b c66b a3bd
00000330: 6cde 94bd bcdf a2bd d499 3abd 275d 17bc
00000340: e3ff 52bd 9b97 2fbd ff5c b1bd 208d 25bc
00000350: 732f 66bc fa42 6bbd a269 063c 1754 86bd
00000360: 2f15 37bd 7918 88bd 6365 0abc a80a 22bd
00000370: 94c8 5abd db68 023d c7fe a4bc 0eaf 303a
00000380: 3642 613d 8ca8 32bd bc37 b33c 36ca 4fbd
00000390: 3270 933c 4604 23bc 3f2c 99bb 0ca5 d43c
000003a0: 704a dcbd 532c 88bd a2ed c4bc 2913 03bd
000003b0: f66e 933d 0e6c 52bd 6797 083d b382 973c
000003c0: 9160 7b3c b65f a53b 7592 96bd 2e09 d03b
000003d0: 025e 3e3c 97df 753c 57b3 6abd 1137 8c3b
000003e0: d5e7 693b 09c0 e5bc 3ce8 0cbd 7b65 e9bb
000003f0: b991 bc3c b237 093d 990f 693c b94d 293d
0.051660564 -0.020463498 0.042221487 0.08174662 -0.054699555 -0.017473988 -0.014371748 0.016496545
0.022463018 0.022648985 -0.06566489 -0.066646785 -0.023755364 0.012299207 -0.01878318 -0.07629459
-0.0016589226 -0.014761139 0.0027610904 0.075913735 -0.024026452 -0.009898542 0.044803612 -0.017666727
0.051608015 0.031037897 0.06516131 0.0197076 -0.035991162 0.0039066016 0.010471211 0.049226005
0.022796217 0.0044695106 -0.01095176 -0.054911975 -0.013746209 -0.019087002 -0.04938753 -0.035876997
-0.026890565 0.01633547 -0.06919315 -0.069689654 0.027461454 0.033243287 0.023563255 0.05074788
0.05618976 0.0763686 -0.013091629 -0.03560846 0.0056985267 0.030766854 0.013244161 0.042756636
-0.047065087 -0.048782732 0.08849169 0.0797006 -0.05560293 -0.00029867538 -0.0528858 0.0025903427
-0.004598997 0.013857588 -0.036079988 -0.002314285 0.024096176 -0.047503434 -0.07978473 -0.026046382
0.050473113 0.04058278 -0.006259688 -0.032705136 -0.00093387085 0.0025431016 0.03257198 0.03092551
-0.06676412 -0.008412048 -0.05385954 -0.035452116 -0.042012796 -0.028526116 0.04387409 -0.042849153
-0.004546608 -0.050315615 -0.053219218 -0.00016421797 -0.091326624 0.02303426 -0.02295457 -0.015874201
-0.04186811 0.010165017 0.00882011 -0.031459346 0.014873166 -0.029450012 -0.047689203 -0.021964358
0.02644609 0.027606297 0.0723256 -0.061728776 -0.028291514 0.008012786 -0.04219528 0.0658403
-0.043446753 0.059179828 -0.004339074 -0.046737634 -0.03510773 -0.007188932 -0.07148782 -0.06984599
0.036709704 0.042052228 -0.02966897 -0.010541959 -0.080043055 0.0036398198 -0.01164128 -0.074657016
-0.0051997895 -0.031496353 -0.039921016 0.012028903 -0.016181696 -0.033396576 0.06364876 -0.07391856
-0.009968308 -0.005497354 0.03827719 -0.009880781 -0.023237934 0.024569614 -0.10100597 0.026225952
-0.013032748 -0.005491449 -0.021372767 -0.041466393 0.050112076 -0.02666691 -0.0547013 -0.029799037
0.016225666 -0.03359324 -0.076870024 0.033213377 -0.0026637241 -0.0021337832 0.02502908 -0.050949864
-0.04992843 -0.00016990192 -0.044986524 0.0037273604 0.017752254 0.01163126 0.028420769 0.018302063
0.013557731 -0.010105801 -0.018179463 -0.046679184 0.003260176 0.0014468394 0.0406316 0.016912635
-0.016856652 -0.037157338 -0.057512183 -0.005777705 -0.08148383 -0.043168478 -0.010526235 0.0010288974
0.010332424 -0.092655525 -0.028260008 -0.023050373 -0.025578711 -0.061392862 -0.029127121 -0.080437884
-0.056549136 -0.0026023025 0.018413132 0.018917803 -0.025459899 -0.007637451 -0.03502513 -0.0050932216
0.002259728 -0.0678642 0.005460032 -0.079795405 -0.07268986 -0.0795283 -0.04555686 -0.009238518
-0.051513564 -0.04286919 -0.08660316 -0.010104448 -0.014049399 -0.05743692 0.008203896 -0.065590076
-0.044697937 -0.06645293 -0.008447024 -0.039560944 -0.053413942 0.03183828 -0.020141019 0.00067399524
0.054994784 -0.04361777 0.021877162 -0.050729953 0.017997835 -0.009949749 -0.004674464 0.025957607
-0.10756385 -0.06649079 -0.024039093 -0.032000694 0.071988985 -0.05137258 0.033347514 0.01849494
0.015342847 0.00504681 -0.07352153 0.0063487506 0.011619093 0.015006921 -0.057299938 0.0042790254
0.0035691161 -0.028045671 -0.034401163 -0.007122693 0.023018705 0.03350038 0.01422491 0.041333888

fc.bias f4 [120]
00000000: a1b4 58bd 39e5 c2bc 8e9e 9e3b 33f5 903d
00000010: 4b10 1a3d 236c b83c 16d0 813c f949 993c
00000020: 951a b1bd 92f8 36bd 9541 51bc e247 28bd
00000030: 8542 47bd 4d7d 75bc 6ace 1cbd 2ebf a33b
00000040: 28f8 cabc 0b5c b23c e5b6 5fbd 433a 01bd
00000050: b629 0a3d dc71 fd3c 7cc7 2dbd 3cf1 12bd
00000060: 3a78 ffbc 2493 e63b 786d 393b 94c7 13bd
00000070: 1ff8 66bd 167c 55bb 50f7 af3a a0bf 5fbd
00000080: 4fa5 a93c a2c3 e0bc 53df b6bc c185 a5bd
00000090: d9b7 c03c 913b cebc 42fc 2abc b782 9bbc
000000a0: b805 25bc bb46 c13b b6f3 edbc cfac 0e3c
000000b0: 1f7e e2bc 740f 5dbd 6afe 49bd d8ff 19bd
000000c0: b385 51bc 8be2 3ebd cdd1 02bc 93b1 373d
000000d0: b1f5 ac3c f1c4 3cbc 33e8 70bc 45fa 2bbd
000000e0: 26eb e8bc 87ff d7bc f486 34bc cfa3 013d
000000f0: 4583 b23a 6c1c 1fbd d381 69bd bdd4 afbc
00000100: cef7 28bd 6eea 1c3a c4f6 033c 3ac0 58bd
00000110: 37ff a63c ecb3 05bc 42b9 c23c b556 13bb
00000120: 9b2b 933c 74dc b13c 8c15 41bd ed14 e2bc
00000130: fb99 26bb b72a fb3c 134e 93bc 6edd d63b
00000140: 09db 303d cf71 a73c 50c9 17bc 1193 93bd
00000150: 8b76 fe3c 3e72 6ebc bf3a 18bd 0d9a 6a3d
00000160: ef34 5ebd 8b34 49bd 4af1 3fbd 6464 0dbd
00000170: 8a8b bdbc 4785 57bc c888 8b3c f55a d53c
00000180: f7b3 39bd e698 9cbc b018 5abd 499f 6bbb
00000190: 7715 0bbd 5b66 66bd 55f8 31bd c1e2 55bd
000001a0: 49bc 533b 3320 f53c 07ef e1bc ba40 b9bd
000001b0: f947 b63c 839d 8cbc 737c 1d3d 49e4 bb3d
000001c0: 19f3 22bd f7e5 d23c 5907 4cbd 8925 28bd
000001d0: cf6a 3b3d 3df0 943a 6fa8 4fbb 93a7 bcbc
-0.052906636 -0.023790943 0.0048406785 0.07078018 0.037613194 0.022512501 0.015846293 0.01871203
-0.08647648 -0.04467065 -0.012771984 -0.041084178 -0.048647422 -0.014983487 -0.03828279 0.0049971556
-0.024776533 0.021772405 -0.05461778 -0.031549703 0.033731185 0.030938081 -0.04242657 -0.03587459
-0.031185258 0.0070365835 0.0028294008 -0.036079004 -0.05638897 -0.0032575182 0.0013425145 -0.054626107
0.020708708 -0.027437035 -0.022323286 -0.08082152 0.023525165 -0.025174888 -0.0104361195 -0.018983228
-0.010072164 0.0058983243 -0.029046874 0.008708193 -0.02764803 -0.053969815 -0.049314894 -0.037597507
-0.012788224 -0.046602767 -0.007984591 0.044847082 0.021113249 -0.011521564 -0.014703798 -0.041986722
-0.02843244 -0.026366962 -0.011018503 0.03165036 0.0013619444 -0.038845465 -0.057008576 -0.021463746
-0.04125195 0.00059858605 0.008054439 -0.052917697 0.020385368 -0.0081605725 0.023769978 -0.0022482101
0.017965129 0.021711566 -0.04713969 -0.027597869 -0.002542137 0.030660016 -0.017981565 0.006557158
0.04317764 0.02044001 -0.009264305 -0.07205785 0.031062385 -0.014553605 -0.0371654 0.05727582
-0.0542497 -0.049122375 -0.04686097 -0.034519568 -0.023137826 -0.013154334 0.017032996 0.026044348
-0.045337643 -0.019115876 -0.0532462 -0.0035953096 -0.033956017 -0.056249958 -0.04344972 -0.052218203
0.0032308272 0.02992258 -0.027579797 -0.09045549 0.022251116 -0.017164951 0.038448762 0.09174401
-0.039782617 0.025744421 -0.049811695 -0.04105142 0.045756157 0.00113631 -0.0031686088 -0.023029124

fc1.weight f4 [84, 120]
00000000: 61c7 6d3d a7a9 f0bc 91e3 2d3d 8f18 7d3d
00000010: 49a7 abbc 23ac d8bc 0372 85bd aceb 1a3d
00000020: b7f1 543d 079b 73bd fa4f 8f3d a0fe 743c
00000030: b960 32bd 8edb 82bd af81 273e 24f3 b13d
00000040: 5109 203d 75f4 a8bd 21da be3c 6aa3 0abd
00000050: 24cb c3bc 68a9 913e b0f5 a23d ab17 263d
00000060: 76f2 abbd 26cc f53c e14b 4ebd ba7e eebc
00000070: 8886 4cbc 69d2 d2bd 4279 5d3a 42e0 c73d
00000080: 3f2d 233d 1cf5 01be 484a eebc 0917 db3c
00000090: 7408 1e3d a729 593c 512e 0ebc 559c a7bb
000000a0: 7733 be3d bb8b 9abd c7fd 183d f7f7 8d3d
000000b0: 6599 b2bd a8db 98bd 017f 9a3d 679b 9cbd
000000c0: 3ce0 b8bd 63e5 a63d 9ffc 2c3c d4c4 8cbd
000000d0: 8d76 483d d6aa 313d f088 0a3d 1096 93bd
000000e0: d9f9 103e cca1 0e3d 048c eabc d1fa f93d
000000f0: 8d0c ac39 12ca 93bd 790e afbd 14f9 053e
00000100: a1b0 afbc 2f91 873d 17ab 973b b7f5 b6bc
00000110: 6176 aa3d 2643 93bc 4f81 e93b a5db b8bd
00000120: 61db 083d 134a fc3c 5c26 f03b 2e58 9ebd
00000130: 2a8b c03d d49d 3ebc fdd6 88bc 28ed 373d
00000140: bc02 f3bb 417e 383d 345e 8abd a3e8 0c3d
00000150: 1bc6 25bc bbe6 54bd 8959 bf3d e6be 52be
00000160: 96a8 05bd 23ce 153d 7512 84bc ef40 a1bc
00000170: aa04 f4bd 8f08 99bd 03ba b23d 0fca 813d
00000180: 9efa bf3d 4fe8 e9bb 1b8f 7ebb e8a4 4bbd
00000190: 379c 62bb c322 c3bc 9aa1 b7bd 748f c63d
000001a0: 11dc 9c3d 40ca 4bbd 8b54 763d cc08 1e3e
000001b0: 6b68 67bb 6b21 28bc de3f bfbc 67a0 8abd
000001c0: a3d5 993c 5842 1c3d 233e a3bd bb76 ff3d
000001d0: d309 03bd 960c 18be b6d1 543d c52f 9bbc
000001e0: 8e93 8dbc 439e 39be 46ec 64bd 1706 263d
000001f0: 535d bf3d f69a 1c3c 0253 293e 0fa2 85bb
00000200: 94c7 11be 332c e33c 1157 f43b 2902 a23c
00000210: 6fe7 6fbd 85c4 8cbd a290 17be b81e 96bd
00000220: 5b50 53bd b0db 4abd a478 1d3d 5e76 f33d
00000230: 6b36 fa3d 5302 18be f8ab 76bd 34b5 5fbd
00000240: 1373 063e cd42 1c3d 4f2d 123e 4b77 d9bd
00000250: 600d ac3c 839e c93d 67dc bc3d 82bb a43c
00000260: 9731 bf3c 8719 0cbd 38be e73d b0f7 b5bc
00000270: ab1b 4f3d 8f14 9bbc 15b3 483d 9cb2 7cbd
00000280: 279a b8bd 4a73 f8bd 7c44 9d3d a57c 10bc
00000290: be7e 8f3d 9688 05bd e1d4 843d f4a2 c4bc
000002a0: e068 853d a30b 02bd abd4 673d 4752 763d
000002b0: e6d9 44bc 2a54 ad3c 3823 6e3b c88c 90bd
000002c0: 0ad6 edbd 6780 243d b5f6 dc3c 1a85 54bd
000002d0: 0392 d9bd 0878 68bc 3088 e3bc fc4e 31be
000002e0: 9fd9 883d 3809 573d 6cb8 ab3d 9337 b6bd
000002f0: 4f07 b73d c8a1 3abd 9343 403e 1365 b13d
00000300: 3b94 8d3d 0914 80bd 106e 85bc 188e ebbd
00000310: e3a2 823c ed4b ba3c c5db 10bd 5ebe 12bd
00000320: 5331 103e 060a d53c 1899 faba 69bb e5bd
00000330: 3450 3bbd 54e0 8ebd 6fb5 98bc 00e6 4b3e
00000340: 19e4 233d cb04 023e eded 973d 2371 573d
00000350: e426 19bc 6ce8 c1bd 1de1 623c 3646 36bd
00000360: 1d73 c43d 6e13 0fbd 53d8 603d 2ee2 b33d
00000370: 7622 b63d f0b5 5bbc d7bb 1dbd 4c4a 0cbe
00000380: b94b ff3b 646f bd3d d039 32bd b6c0 2cbc
00000390: dd13 9c3d f139 233e 338c 9abd b219 8e3d
000003a0: 6f09 e13d d063 55bd bc91 aabb 0d05 5e3d
000003b0: 5833 f13c cebd 2cbd 7e00 96bd 83e2 a33c
000003c0: b89a 15bd e035 a1bd 6be0 95bb 5b93 9c3b
000003d0: 81f4 613e ed89 c3bd dcef cb3d 49ec 033e
000003e0: c3bf 4b3c ca69 52bb 1218 223c 60f9 26bc
000003f0: 778e b23d 0e36 8bbd 759b 3fbd de33 853d
0.05805147 -0.029377772 0.042453352 0.061791 -0.020953791 -0.026449269 -0.06515887 0.03782241
0.05198833 -0.059474017 0.06997676 0.014953285 -0.043549273 -0.06389533 0.16358064 0.086889535
0.039071385 -0.082497515 0.023297371 -0.03384725 -0.023900576 0.2844956 0.079570174 0.040549915
-0.08395855 0.030004572 -0.050365333 -0.029113162 -0.012483247 -0.10294039 0.000844855 0.09759571
0.039838072 -0.12691158 -0.029088154 0.026744382 0.03858228 0.01325456 -0.008678035 -0.005115072
0.0928716 -0.07546183 0.037351396 0.06932061 -0.08720664 -0.07463771 0.07543755 -0.07646828
-0.09027144 0.08149221 0.010558276 -0.068734795 0.048941184 0.043375812 0.033822 -0.072063565
0.1415781 0.03482227 -0.028631218 0.122060426 0.00032815748 -0.07216276 -0.08547682 0.13083297
-0.021446528 0.066194884 0.00462855 -0.022333963 0.0832336 -0.017976355 0.0071260105 -0.09026269
0.03341234 0.03079704 0.0073287915 -0.07731663 0.094015434 -0.011634309 -0.016704077 0.044903904
-0.0074160974 0.04504228 -0.06756249 0.034401547 -0.010118033 -0.051977854 0.09343249 -0.20580634
-0.03263148 0.03657354 -0.016122082 -0.019684283 -0.11914952 -0.074723355 0.08726885 0.06337368
0.09373973 -0.007138289 -0.0038842622 -0.049717814 -0.0034577975 -0.023820287 -0.0896637 0.0969533
0.07659162 -0.049753428 0.06013922 0.15433043 -0.003531004 -0.010261874 -0.023345884 -0.067688756
0.018778628 0.038149208 -0.07970836 0.12473818 -0.03199179 -0.14848551 0.05195781 -0.018943677
-0.017282274 -0.18126778 -0.05588939 0.04053315 0.09343972 0.00955843 0.16535571 -0.004078157
-0.1423629 0.027731037 0.007456668 0.01977642 -0.05857032 -0.068734206 -0.14801267 -0.07330078
-0.051590305 -0.049525917 0.03844513 0.11887811 0.12217411 -0.14844637 -0.060222596 -0.05461617
0.13129835 0.038149644 0.14275096 -0.106184565 0.021002471 0.09844687 0.09221726 0.020108942
0.023339076 -0.034204032 0.11315578 -0.022212833 0.050563496 -0.018930702 0.04899891 -0.061693773
-0.09013777 -0.12131365 0.07679078 -0.00881878 0.07006596 -0.03260096 0.06485916 -0.024003483
0.06514144 -0.03174938 0.0565993 0.06013706 -0.012014842 0.021158297 0.003633691 -0.07058102
-0.1161309 0.040161517 0.026973108 -0.051884748 -0.10623553 -0.014188774 -0.0277749 -0.17315286
0.06682133 0.052499026 0.08384785 -0.08897319 0.08936941 -0.045564443 0.18775778 0.086618565
0.06913038 -0.062538214 -0.016287833 -0.115017116 0.015946811 0.022741282 -0.03536584 -0.03582608
0.14081316 0.026005756 -0.0019119112 -0.11217386 -0.045730785 -0.06976381 -0.018641202 0.19911957
0.040012453 0.12697141 0.074184276 0.05259813 -0.009347651 -0.09468159 0.0138476165 -0.044500552
0.095922686 -0.03493064 0.054893803 0.08783375 0.08893292 -0.0134100765 -0.038509216 -0.13700217
0.0077910093 0.09249762 -0.043512166 -0.010543993 0.07620976 0.15940072 -0.07546272 0.06938495
0.109881274 -0.05209714 -0.005205361 0.054204036 0.029443428 -0.0421732 -0.073243126 0.02000547
-0.036524504 -0.07871604 -0.004573872 0.0047783083 0.22065927 -0.09547792 0.09957859 0.12883104
0.012435856 -0.0032106512 0.009893434 -0.010191292 0.08718579 -0.067974195 -0.046779115 0.065040335

fc1.bias f4 [84]
00000000: bf1a c03c a094 b93d 3458 e83d 18c9 ca3d
00000010: 93ad bd3d 0a88 533d 0112 db3d 15de 753d
00000020: 9c47 c73d d8ab 883d 76f2 9b3d 73a1 f63d
00000030: c002 ef3d ce9a 123e fa16 293d 4799 ad3d
00000040: 007c 403b 749d 3dbb 6112 323e 7096 86bc
00000050: 7ecd 963d 3f97 013e f2e2 723c fa45 16bd
00000060: e0c6 9a3d 3de4 8f3c 5113 933d d17f 1a3d
00000070: 6dc1 373c af48 14bd 1a81 d33d edbb a93d
00000080: 8a4f ae3d 74d6 ab3d f9ed 3d3e 9e26 823d
00000090: eb66 ff3c 52bf 16bd 4989 113e 8f73 52bd
000000a0: 581f b0bd 3495 8fbb 06f0 8b3c 17eb a43c
000000b0: 31f5 bf3d 59d0 d53d f23b ac3d d135 b33d
000000c0: b366 d53d 52a2 edbd f6b5 d5bc 6f4b ab3d
000000d0: 50b6 053c 0395 6b3d a794 da3d 3e13 2a3e
000000e0: 7c49 37bd 4dd3 9d3d f416 4b3d 27bd 363d
000000f0: ed52 163e 7c00 163e 2444 f93b 56c1 7f3d
00000100: ca94 56bd 5969 9cbd 21de 00bd 9fb6 dd3a
00000110: 4f32 d4bc 191b a63d b661 f73d 9fcd 693c
00000120: 8964 823d 94ed b63d c62f d23c 93b9 a83c
00000130: 1b58 053b 5379 e4bc afb6 ae3d dbd4 d0bc
00000140: 0699 88bd 9511 fabc c686 1dbd 20ce 46bd
0.023450254 0.09061551 0.113449484 0.09901637 0.09261622 0.05164341 0.10696793 0.060026247
0.09730455 0.066734016 0.07614605 0.12042513 0.116704464 0.14316866 0.041281678 0.08476501
0.0029370785 -0.002893296 0.17389823 -0.016429156 0.07363413 0.12655352 0.014824616 -0.03668783
0.07557464 0.017564887 0.07181419 0.03771955 0.01121555 -0.03620213 0.103273585 0.08287797
0.085112646 0.08390513 0.1854781 0.06355022 0.031177005 -0.03680355 0.14212526 -0.051379737
-0.08599728 -0.0043818 0.017082226 0.02013163 0.093729384 0.1044013 0.08409871 0.08750499
0.10419979 -0.11603226 -0.026087742 0.08363997 0.0081611425 0.057515156 0.106728844 0.16608903
-0.044747815 0.07706318 0.049582437 0.044613983 0.14680071 0.14648622 0.007607 0.06244024
-0.05238799 -0.07637281 -0.03146184 0.0016915387 -0.025902895 0.08110637 0.12079184 0.014270215
0.06366832 0.08932033 0.025657546 0.020596301 0.0020346704 -0.027889883 0.08530938 -0.025492122
-0.06669812 -0.030525962 -0.038458608 -0.04853642

fc2.weight f4 [2, 84]
00000000: 9ecb 85bc 5385 3abe 45de c2bd 8fcd 03be
00000010: d0b7 08be 1f3b 583e 2acc 24be 4670 b73d
00000020: 0b09 ccbd f491 6f3e 86a3 303e 1834 a93e
00000030: 670f 3d3e f537 273e e1e6 763e 69e4 40be
00000040: ee19 433e 45e7 283e 73e5 cdbe 6472 0cbe
00000050: df24 a83d 6e1e 03be 8162 693e 5a94 f9bd
00000060: 4308 e8bd 553d 523e 5a5b 3dbe 3310 47be
00000070: 3fac 643d f4de 7bbd 84e0 41be dcf4 233e
00000080: 7126 263e d6c6 703e efdf 933e 9588 2e3e
00000090: 6007 ba3d ba24 cabb f680 75be 9d4e 1f3e
000000a0: 96c4 3cbd 4d26 4c3e d4c9 4d3e 6eef 69be
000000b0: 1dac 43be ed71 04be 593f 0cbe f937 2c3e
000000c0: 2429 0fbe 96c1 a6bd 82eb 1abe 36f1 60be
000000d0: a6e5 0f3e b510 5bbd ae2f 54be 00c5 c93d
000000e0: c1c8 f43d be2f 9e3e 46b6 5d3e 8acb 6c3e
000000f0: 4fd1 c9bd 7830 7cbe 3a29 8fbd e6d8 3b3e
00000100: 1001 263e bba8 02bd acdd 353d 642e 373e
00000110: c1cb 073e 6484 26bb 930e 06be 49d5 44be
00000120: 6a3b a23d f95f 463e 679a 673d f213 1dbd
00000130: 9aef a8bd 1a40 68bd eff8 193e 93cb 2bbe
00000140: 3e54 643b 640a 063d 1a46 de3c dc05 f3bd
00000150: 37ac 9fbd 50ee 4a3e 21aa 433e 2670 a03d
00000160: 4c62 173e 4ae7 4ebe b979 533e c95d 3cbe
00000170: 5210 4b3e 1284 73be 9b16 19be 461c 47be
00000180: 6f0f 4bbe 4aec 45be ceb4 bbbd 9140 9c3e
00000190: abea 18be b2aa 69be 42ce ba3e 89cc 4f3e
000001a0: 15ac a6bd 6be1 813e c5d4 afbd b3b3 3d3e
000001b0: f524 053e 7166 1fbe 68c9 363d 73c2 6d3d
000001c0: cfe7 2cbe 5412 7e3d e64d 553e 4c03 32be
000001d0: f4d6 6ebe 215f dbbd 29b7 78be 2feb 17be
000001e0: d51d 4cbe 25bb 443b e07c 9f3e 9c13 fabd
000001f0: 2918 87bd e2d1 63bc dd34 dbbd db9d 2e3e
00000200: caad f83d 8443 713d 2ab8 1b3e 6746 1cbe
00000210: 1f5d 7a3d 5905 97bd 8c8c e43d 6301 663d
00000220: 27d1 19be e4b0 523e 8b48 243e cb89 6ebe
00000230: 07c4 3abe 67d0 93be 7cf6 b7be fa84 aebd
00000240: e0be 923d 4081 0f3e 247e 383e b1e3 30be
00000250: 5010 41be 5f8f 593d 5a98 d8bc 0c9a d6bb
00000260: bb26 0abe 8042 2ebe 5f78 7f3e 3c89 b03d
00000270: 43f5 3cbe de21 4fbe c439 f5bd 8b23 133e
00000280: 6cad 503e 7842 b3bd 590f 28be 1b7b 683e
00000290: 5a1c c83c 4af6 20bd 6f2d 19be 75c3 513e
-0.016332444 -0.18214922 -0.09515051 -0.12871383 -0.13351369 0.21116303 -0.16093507 0.08956961
-0.09962662 0.2339552 0.17249879 0.33047557 0.18462907 0.1632994 0.24111511 -0.18837132
0.1905286 0.16494472 -0.40214118 -0.13715512 0.082101576 -0.12804577 0.22791483 -0.12186499
-0.11329701 0.20531209 -0.18491879 -0.19439773 0.05582833 -0.06149192 -0.18933302 0.16011375
0.16225602 0.2351335 0.28881785 0.1704429 0.09083438 -0.006168929 -0.23974976 0.15557332
-0.046085916 0.19936486 0.20096523 -0.22845241 -0.19108625 -0.12934084 -0.1369604 0.16818227
-0.13980538 -0.08142392 -0.15128902 -0.21967015 0.14052448 -0.05348273 -0.20721313 0.09852028
0.11952353 0.308958 0.21651563 0.23124519 -0.098543756 -0.24627864 -0.06990285 0.18344459
0.16211343 -0.031899195 0.044400856 0.1788879 0.1326132 -0.00254085 -0.13091497 -0.19221987
0.079214886 0.19372548 0.056543734 -0.0383491 -0.08248825 -0.056701757 0.15036367 -0.16776876
0.0034840251 0.032724753 0.027133036 -0.11866352 -0.07796519 0.19817472 0.19107868 0.078338906
0.14783591 -0.20205417 0.20651902 -0.18395151 0.19830444 -0.2378085 -0.1495003 -0.19444379
-0.19830106 -0.19328418 -0.09165345 0.3051801 -0.14933269 -0.22819021 0.36485487 0.20292868
-0.08138291 0.25367293 -0.085855044 0.18525581 0.13002379 -0.15566422 0.04462567 0.05804677
-0.16885303 0.062029198 0.20830497 -0.1738407 -0.23324186 -0.10711504 -0.2428862 -0.14835809
-0.19933255 0.0030018773 0.3114996 -0.122107714 -0.06596405 -0.01390502 -0.10703442 0.17052405
0.12142523 0.05890228 0.15206972 -0.15261231 0.061123963 -0.07374067 0.1115962 0.056153666
-0.15021192 0.20575291 0.16043298 -0.23294751 -0.18238841 -0.28869936 -0.3593024 -0.08521457
0.07165313 0.14014149 0.18016869 -0.17274357 -0.18853879 0.053115245 -0.026439834 -0.0065491255
-0.13491337 -0.17017555 0.24948262 0.086199254 -0.18452935 -0.20227763 -0.119739085 0.14369027
0.20378655 -0.08752912 -0.16412105 0.22703211 0.024427582 -0.03929738 -0.14958738 0.20484717

fc2.bias f4 [2]
00000000: b125 ad3c f6df 0bbd
0.021136137 -0.034149133
