model_myANN.pt (torch, 250874 bytes, 18 tensors)

layer1.0.weight f4 [6, 1, 5, 5]
00000000: b9a2 343e 8f7e 24be 66b2 e5bd ff5c 36bd
00000010: b2d0 b0bd 813c a53d c26a 4bbe 7362 973d
00000020: a67e 2e3d e2d3 b9bd c108 b63d 9127 00be
00000030: c76b 97bd 5d45 103d e4f1 01be 4f6b 1b3e
00000040: 51fe 0ebd 2662 80bd ab65 bc3d 5034 4dbe
00000050: 7372 a6bd 81a2 383e 5760 833d 034a 3fbe
00000060: c67f b3bd 254f 1ebe 3efa 303e ea2e c23d
00000070: b31d 143e be18 3bbe e561 003e bc7c fc3b
00000080: d42c 9bbd 3890 26be 3694 84bd cea9 0bbb
00000090: 3577 26be f82e 1bbe 195f c13c f07c 4f3d
000000a0: 5934 cebc 6a19 1fbc 265e b53b 7f1c 0dbe
000000b0: 0ebc fb3d 2e7c ae39 c9ac e13d 8c16 a73c
000000c0: 5f63 dcbd 2c18 29bc 957b 453e db47 3fbe
000000d0: 9f86 c13c 208d 163e 571b 52bd 85f8 23be
000000e0: 8fc2 8d3d d35d eb3c febd 01be d9f0 f43d
000000f0: 155e 2a3e 13cc 713d 9b70 41bc 3c06 45bc
00000100: 4da8 62bd 27a9 a13d e573 07bc 1153 87bd
00000110: e235 1d3e dd77 a8bd dd32 533e cb63 cc3d
00000120: 9593 273e 047a bb3d 6a4d 70bc a0cb debb
00000130: 9195 0fbe 6579 f63d b86c df3c 40a9 47be
00000140: 9bbb 8abd 8757 253e 0441 13be ed48 a83d
00000150: 2646 953d 2ebb 2dbe 11b7 883d 2708 ba3d
00000160: 1050 07be eec4 1c3e 7eda 573d 0b37 51bc
00000170: 1ce2 f23d 8ad3 5f3d 8ab0 cb3c 6a80 133e
00000180: cf59 ebbd c9bf a5bd 5e48 813d 48ce b3bd
00000190: 88c3 06be bc6b c83b e60e 38be d140 4cbe
000001a0: c021 30be 2662 a0bd 0177 1dbd 778a 3dbe
000001b0: 955c f9bd c46a f9bd 80d5 1b3e 6eb6 3c3e
000001c0: 136f 32be c7e1 4e3e 11e9 43be 7f40 0f3d
000001d0: 1d22 1abe 284a 3abc 3f8e b4bc aefb 303e
000001e0: 3d14 e33d 867e 3abe 8550 c33d e447 0abd
000001f0: 8358 34be b704 a43c e05b 8dbd 15cd 19be
00000200: 9779 fb3d a302 3f3e 57fe 013e ae55 8dbd
00000210: 2594 18be 1a2a cf3d aae4 eabd 678a a1bc
00000220: 2c33 85bd 092e 28be e0d7 2bbe 4223 d8bd
00000230: a21c c13c 0af6 e03d e33a 52bd 8f7e c13d
00000240: 7b75 2a3e 240a 2f3e 888e 3ebe 07af 08be
00000250: dc02 3fbe 4263 30be
0.17640199 -0.16063903 -0.112156674 -0.04452228 -0.086335555 0.08068181 -0.19864944 0.073918246
0.04260125 -0.090736166 0.088883884 -0.12515093 -0.07393604 0.0352224 -0.1268993 0.15177654
-0.034910504 -0.0626872 0.09199079 -0.20039487 -0.08127298 0.1803074 0.0641486 -0.18680577
-0.08764605 -0.15459879 0.1728296 0.094816044 0.14464454 -0.18271157 0.12537344 0.007705299
-0.0757691 -0.16265953 -0.064735815 -0.0021310928 -0.16256411 -0.15154636 0.023604916 0.05065626
-0.025171446 -0.009710649 0.005534905 -0.13780402 0.12291728 0.00033280387 0.11019284 0.020396493
-0.10761141 -0.010320704 0.19285424 -0.18679754 0.023623763 0.14702272 -0.051295605 -0.16012771
0.06921875 0.028731262 -0.12670133 0.119600005 0.16637452 0.05903251 -0.011806632 -0.012025412
-0.055336285 0.078935914 -0.0082673775 -0.066076405 0.15352586 -0.08225987 0.20624872 0.099799715
0.16364892 0.09154132 -0.014666894 -0.0067991763 -0.14021899 0.12034873 0.02727352 -0.19498158
-0.06774064 0.1614667 -0.1438027 0.082170345 0.072887704 -0.16965935 0.06675542 0.09083586
-0.13214135 0.15309498 0.052698605 -0.012769471 0.11859533 0.0546451 0.024864454 0.14404455
-0.11491739 -0.08093221 0.06312631 -0.087795794 -0.13160527 0.0061163586 -0.17974433 -0.199466
-0.17200375 -0.0783122 -0.03844357 -0.18509851 -0.12175862 -0.12178567 0.15218163 0.18428966
-0.17425184 0.20203315 -0.19131877 0.034973618 -0.15052076 -0.011370219 -0.022040484 0.17283508
0.110878445 -0.18212327 0.09536842 -0.033759966 -0.1761189 0.02002178 -0.069022894 -0.15019639
0.12279051 0.1865335 0.12694679 -0.06901108 -0.14900263 0.10115452 -0.114693955 -0.019719316
-0.06503901 -0.16423811 -0.16781569 -0.105536 0.023573224 0.10984428 -0.05132569 0.09447967
0.16646378 0.17093712 -0.18609059 -0.13348018 -0.18653435 -0.17225364

layer1.0.bias f4 [6]
00000000: 1d78 203e ded9 54bd a7cb c63d ede7 28be
00000010: 1464 46be 935c 5e3d
0.1567082 -0.051965587 0.09706812 -0.16494723 -0.19374114 0.054287504

layer1.1.weight f4 [6]
00000000: a3b1 7e3f eb35 803f e714 803f 11b9 7e3f
00000010: 8616 813f 340c 803f
0.994898 1.0016454 1.0006379 0.9950114 1.0084999 1.0003724

layer1.1.bias f4 [6]
00000000: c951 5cbb a6e6 de3a a233 043b 88fc 3abb
00000010: 3159 183c fbfa 543b
-0.0033618084 0.0017005994 0.0020172377 -0.0028531868 0.009298609 0.0032498229

layer1.1.running_mean f4 [6]
00000000: c2d2 463e 653e 02bb aafd cdbc 33b5 10be
00000010: 9d04 76bc 78b6 003e
0.19416335 -0.0019873616 -0.02514537 -0.14131622 -0.015015748 0.12569606

layer1.1.running_var f4 [6]
00000000: 2fcb 8e3e b07b 6b3e b88d 993e ee9e 583e
00000010: 92af db3e bf93 923e
0.27889392 0.22996402 0.29990935 0.21154377 0.42907387 0.28628346

layer2.0.weight f4 [16, 6, 5, 5]
00000000: 85e0 8fbd 0a76 9b3d dd9c ee3c 117e f53c
00000010: 90bd 92bd d9ab de3c 35b8 88bd 68e6 9a3d
00000020: b9be 04bc 3b18 6fbd c5be f3bc 703d 07bd
00000030: 9fe0 913d 6ed2 8abd 9ba4 1b3d 2f6e 8dbd
00000040: 1eae 46bd cd64 283d 21be 373d 52b6 a33d
00000050: 5249 6abc c676 b2bc aada 3f3d 88df 9e3d
00000060: 32e5 af3c dae4 06bc bc47 563d 0515 6ebd
00000070: edcc fcbc 2c7a de3c 8d8d 8cbd 4fd5 533d
00000080: 4dcc 99bc 9de6 4dbd 8a54 92bd 2108 06bd
00000090: 9563 9f3d 61ad 0e3c 1a1b f73c 5368 963d
000000a0: 7550 7d3d aba5 a13d 71d3 ecbc 725e 273d
000000b0: 505b f53c e667 61bc 418e a23d d6fb 6ebd
000000c0: 5477 1b3d c8f6 92bc b34f 1a3d a95f 843d
000000d0: 74f3 48bc 14c1 22bc 536a f4bc 7ae0 a7bd
000000e0: 4868 fc3c 9790 6b3d cbca 813c bd11 8abd
000000f0: 92c8 06bd 4925 473d 009f 603d b3d9 1ebd
00000100: 6ae9 9bbd ee1a 11bd 0365 953d 05db 54bd
00000110: 8766 c43c 53f5 92bc 3853 b6bd 8e79 f73b
00000120: 2eb2 893d 48a3 17bd 06d5 813d 6b39 813d
00000130: d649 ae3b d0f8 063d c171 a3bd 5ddc 7c3d
00000140: 48d8 9cbc 8fe1 80bd f9a2 23bd 43b8 0fbc
00000150: 79a5 81bc 507a 723c 3d81 a0bd 44f8 8abd
00000160: e934 8a3d e0a0 3bbb 1cd7 2abd 810d 3dbd
00000170: 8294 3f3d 612a 943c a184 0abd ea45 123d
00000180: 1d1a 65bd a13d 11bd 4c0c 2c3d a732 9b3c
00000190: 8010 2f3d a21c d4bc f59f 963c fdbb fdbc
000001a0: 5f28 203d b437 903d 41be 1f3c 1ca7 a63d
000001b0: 2a20 723d 8c41 423c 2d02 fdbc fc28 743c
000001c0: 4c66 9abd b631 743d 879d 5abd 93cf 2d3d
000001d0: 7936 5d3d 75a1 18bd 4c91 ab3d 530b 22bc
000001e0: d859 61bc 694a cf3c 587e 65bc 55de 053d
000001f0: 07ed 483d 6e06 9bbc 0ec9 22bc 4f29 9d3d
00000200: e9dd 793d f40d 21bd dd04 813d 1230 243d
00000210: a19c 213c 5290 553d 3da5 93bd 11fe 40bd
00000220: 8a36 97bd b787 123c f0d6 bcb9 5823 09bd
00000230: cc47 293d 89cf f83c 3212 033d d1a4 1f3d
00000240: 57df 97ba 9e5d 86bd 0e90 31bd a05e 443d
00000250: f2eb 6cbd 7930 553d 1722 353d b8c0 d2bc
00000260: a42c 3cbc 6539 9c3d 336a 613d 6f87 733c
00000270: ffca 87bd 30df 1d3b 00d4 fdbc 271e c73c
00000280: 5f98 80bd ea4c 1d3c 42a9 2fbc b2b5 9a3d
00000290: 6978 943c 5128 eb3c 573e 813d 89c3 073a
000002a0: fbf0 3f3c 0c0f 3e3d a401 2b3d 616a 14bd
000002b0: 2d4b 7dbc 58af 973d 6f5a b9bc b669 71bd
000002c0: 3b9d 88bd 2e6c 613d 9c20 5abd a9e1 723c
000002d0: c6e1 91bd 38de 8b3d 8238 ac3d c302 70bd
000002e0: 0a3b 8ebd 4c44 2cb9 8fd9 5f3d d551 5f3c
000002f0: c02d 8c3d 8032 e8b6 d907 15bc 8ed5 b23b
00000300: fe97 2dbd 94a6 a53d fd0f 713d a074 16b8
00000310: 519d a1bd cbd1 953c de9d 32bd 90ce 313d
00000320: aecb 303d 5b83 e1bc deec 583d c10b 0e3d
00000330: 23cd 03bc c749 14bd 3f13 2fbd abb3 18bd
00000340: 123a 873d 015f 71bd 69d8 08bd 386a a0bd
00000350: d7c0 93bc 44d1 d33c a9bc 9bbc 16ce 323d
00000360: 7b6b 4ebd 08e0 8abd a040 5c3d 05b5 733d
00000370: cee1 2b3d be6e 3cbb 67b8 233d a3f8 a1bd
00000380: 840d 6b3c 78b8 513d b714 4cbc 1688 833d
00000390: bde3 1abd 96f8 d83b e506 6f3d 8232 5d3d
000003a0: 35d7 2cbd 0b02 a5bd 81ee ae3c 6866 673d
000003b0: 08d7 b53c b89f ff3b 50fd 27bd d5dd aebd
000003c0: ef04 cb3c 9ed4 763c 964a 083d 8e36 753d
000003d0: f4e3 b0bd 9ca3 a03d 2d47 963d 310d 483c
000003e0: 0d6a 92bd 72a2 ea3c 5f76 6e3d b951 1b3d
000003f0: 85dc 7a3d b858 a33d cd78 63bc 2701 813d
-0.070252456 0.075908735 0.029127533 0.02996734 -0.071650624 0.027181553 -0.0667576 0.07563478
-0.008102112 -0.058372717 -0.029754052 -0.033017576 0.07122921 -0.067784175 0.037998777 -0.069057815
-0.048505895 0.041111756 0.044859055 0.07993759 -0.0142997075 -0.021785151 0.046839394 0.07757479
0.021471594 -0.008233273 0.052314505 -0.058125515 -0.030859435 0.027157865 -0.06862936 0.0517171
-0.018774176 -0.050268758 -0.07145031 -0.032722596 0.07782666 0.008708329 0.03016429 0.07344117
0.061844308 0.07892927 -0.028909417 0.040861554 0.029950768 -0.0137576815 0.07937289 -0.05834564
0.037955597 -0.01793994 0.037673663 0.06463558 -0.012265075 -0.009933729 -0.029835856 -0.081971124
0.030811444 0.05751094 0.01584377 -0.067416646 -0.032906123 0.048619542 0.054839134 -0.038781833
-0.076128796 -0.035426073 0.07294657 -0.051966686 0.02397467 -0.017939245 -0.089025915 0.0075523322
0.06723438 -0.03702095 0.06339459 0.0630978 0.0053188605 0.03295213 -0.07980681 0.061733592
-0.0191461 -0.06293022 -0.039950345 -0.008771959 -0.015825974 0.014799669 -0.0783715 -0.06785634
0.06748373 -0.0028629825 -0.04170905 -0.046155456 0.046772487 0.018086614 -0.03381789 0.035711206
-0.055933107 -0.035459165 0.042003915 0.018945051 0.042740345 -0.02589256 0.01838682 -0.030973429
0.039101 0.070418745 0.00974995 0.08137342 0.059112705 0.011856448 -0.030884827 0.01490235
-0.07539043 0.05961772 -0.053372886 0.042434286 0.054007027 -0.037263352 0.083773226 -0.009890395
-0.013754331 0.025304036 -0.0140071735 0.032682735 0.049054172 -0.018923964 -0.0099356305 0.076738946
0.061002646 -0.039319947 0.06299756 0.040084906 0.009864003 0.052139588 -0.07209251 -0.047117297
-0.073834494 0.00894349 -0.00036018295 -0.033480972 0.041328236 0.030372398 0.031999774 0.03897554
-0.0011586946 -0.06560825 -0.043350272 0.047941804 -0.057842202 0.05204818 0.044221964 -0.025726661
-0.0114852525 0.07628135 0.05503292 0.014863833 -0.06630515 0.002408933 -0.030984879 0.02430637
-0.062790625 0.009600857 -0.010721507 0.07554187 0.018123822 0.028705748 0.063107185 0.00051789783
0.011715169 0.04640107 0.04174961 -0.036234263 -0.015459818 0.07406491 -0.02262613 -0.058938704
-0.06670614 0.05503481 -0.053253755 0.014824309 -0.07123141 0.06829494 0.084092155 -0.058596384
-0.069448546 -0.00016428641 0.05465084 0.01363035 0.068446636 -6.9200178e-06 -0.009096109 0.0054575866
-0.04238128 0.08088413 0.05885314 -3.5871402e-05 -0.07891334 0.018288514 -0.043607585 0.043409884
0.043162994 -0.027528455 0.05296027 0.03467918 -0.008044514 -0.036203172 -0.042742964 -0.03728072
0.06602873 -0.058928493 -0.03340951 -0.078327596 -0.01803629 0.025856622 -0.019010859 0.04365357
-0.05039547 -0.06781012 0.05377257 0.059498806 0.04196339 -0.002875253 0.03997078 -0.07908752
0.014346484 0.051201314 -0.012456111 0.06422441 -0.037814844 0.0066214306 0.058356185 0.054003246
-0.042197425 -0.0805703 0.021353962 0.056494147 0.022197261 0.0078010224 -0.041013062 -0.08538405
0.024782626 0.01506534 0.033274256 0.05986648 -0.086372286 0.07843706 0.073377945 0.012210176
-0.07149134 0.028641913 0.058218356 0.037919734 0.06124546 0.07975906 -0.013883782 0.06299048

layer2.0.bias f4 [16]
00000000: b82d 3bbd 50b4 98bb 5e4d 85bd ee7b d33c
00000010: 0297 773d 467a 6c3c 5e3e 673d 767f e73c
00000020: 8e2e 99bd a3af 58bd 604f 2b3c ddba 0dbc
00000030: c56c 563d e592 0dbd e34e a63d 82a0 593d
-0.045697898 -0.004660167 -0.06508897 0.02581593 0.060446747 0.014433449 0.056455962 0.02825902
-0.07479583 -0.052901875 0.010455936 -0.008650509 0.052349824 -0.034563918 0.08120515 0.053131588

layer2.1.weight f4 [16]
00000000: de7b 803f 9a79 7e3f 71ca 7e3f a055 803f
00000010: 9246 7e3f bfdc 7f3f c00b 7e3f 8eb6 7e3f
00000020: 0cc7 7d3f 29d7 7f3f 53cd 7e3f 6ce0 7e3f
00000030: 867e 803f 2628 803f 1534 7f3f 0e22 803f
1.0037801 0.994043 0.9952765 1.0026131 0.9932643 0.99946207 0.9923668 0.99497306
0.99131846 0.99937683 0.9953205 0.9956119 1.0038612 1.0012252 0.99688846 1.0010393

layer2.1.bias f4 [16]
00000000: 1577 373a c306 a8bb 825d a9bb 786e 4a3b
00000010: d7e7 44bb 782e 81ba 8cfd 02bc 1263 26bc
00000020: 9e1b 03bc bbd7 0ebb 549a 6fbb d47e f8b9
00000030: ee79 963b ad50 063b 6b2e 8ebb 6dd6 ba3a
0.00069986406 -0.005127759 -0.0051686177 0.0030888598 -0.0030045414 -0.0009855768 -0.007995021 -0.010155456
-0.00800219 -0.0021796066 -0.0036560493 -0.0004739674 0.004592172 0.0020494864 -0.0043390295 0.0014254578

layer2.1.running_mean f4 [16]
00000000: d53f 123e 10a4 ec3e 4b67 b1bd ea22 8b3d
00000010: 19c7 acbe ff8f 8cbe d906 2e3f 4061 a4be
00000020: 6acf 743e 18d0 84be 43e0 04be 2780 afbe
00000030: 9cba a7be b588 b73e f36d 54be 35d0 ca3e
0.14282162 0.4621892 -0.0866228 0.06793769 -0.3374565 -0.2745361 0.679792 -0.32105446
0.23907247 -0.25940013 -0.12976174 -0.3427746 -0.3275956 0.35846487 -0.20745067 0.39611974

layer2.1.running_var f4 [16]
00000000: 43b9 ba3e d127 b23e fe47 9d3e ad6e d23e
00000010: 19d1 963e bd26 b93e a84d 9f3e 6571 9f3e
00000020: 8b68 b83e 263e bd3e 29fb a53e 6bcf c13e
00000030: ae5b db3e 1034 ad3e c746 853e 3258 da3e
0.36469468 0.34796003 0.30718988 0.41100064 0.29456404 0.36162367 0.31113935 0.311412
0.3601726 0.36961478 0.32418182 0.3785356 0.42843384 0.33828783 0.2603056 0.42645413

fc.weight f4 [120, 400]
00000000: f0ae 1f3d 3808 0cbd 50f2 bc3c 8e81 f9bb
00000010: eb13 e03c bb4c e4bc 0f17 c1bc ff19 de3c
00000020: eb7b dd3b 4c9e 823c 2867 943c c0b4 15bc
00000030: 3c54 b73b 5295 6b3c 79e7 2bbc f6f9 29bd
00000040: 596e d2bc 74b4 f23c 203d 1bbd 0477 a4bb
00000050: 31d0 0e3c e478 be3c ccf1 a23c 8c36 193c
00000060: 1a09 273c 1ed7 0a3d 9856 3ebb e899 71bb
00000070: 0cc6 1cbc 9e45 38bd 3c3d 9fbc 5c83 32bd
00000080: 5e35 993c 7cd7 443d 0379 5bbc ff9e 0f3d
00000090: c4f7 333d ac06 52bd 7282 2abb 35f1 113d
000000a0: 0b07 05bd 695f 20bd f52d 9bbc 80c3 1fbd
000000b0: dad1 b53c 46b5 c53c c082 893c facf 7c3c
000000c0: 6b93 cdbc 94d9 a53b e765 9a3c 798a d2bc
000000d0: bf60 d23c 6e75 ea3c 8ecd 0bbd 555b 17bb
000000e0: f3f4 133d ef6b e73c cda2 ac3c 8262 3e3a
000000f0: bd85 e43c 8e2a f33b c3ab 8fbc 28a4 f3bb
00000100: a154 833c 0c36 eb3c 2ebc 46bd 2b53 fabc
00000110: 7b81 083d 3581 34bd 267c 7bbc 45b3 013d
00000120: 3667 ddbc 76f1 d6bc 23e5 523b 3485 2b3d
00000130: 8751 033c 3c2a 46bc f888 45bd e264 82ba
00000140: 3a52 f93c 8589 13bd 3b1d 8f3c 28b9 59bc
00000150: 00b6 29bd 5b1d d1bc 0ea4 47bc 8774 3abd
00000160: faf2 32bd d2c5 4a3a a87e 2cbd 2935 2b3d
00000170: 1581 d03c ee84 063d f351 99bc 95de c3bc
00000180: f408 153c d492 1b3d 2dca 123c 824a b2bc
00000190: 71d8 3ebb a940 bc3c f821 dcbc 2402 83bc
000001a0: 173d e4bc b7b5 2abd 603d 033d 7c39 f2bc
000001b0: 5fbe b13c f877 603b b0fa 45bc 29e6 e13c
000001c0: 9f03 05bd 72e6 fc3b 69b9 ce3c f8a9 aabc
000001d0: 13b4 1f3c 0279 e23c 16e7 013d 1bbc de3c
000001e0: fd46 473d e8c8 16bd 953f 06bd f727 963c
000001f0: dc7a ab3b c22e 4cbd d13b c23c 4b59 573b
00000200: c3f0 bfbc 63ca d63c 7935 3f3d d45f cdbb
00000210: 31b2 38bd 181d 4b3c f0a0 49bd 0cbb 7f3b
00000220: 6d01 36bc 414e a53c 34fe 48bd 0c43 3a3d
00000230: f792 90bc 869d 37bb ff4d 2bbb ae92 863c
00000240: 1379 2c3d 9fb7 b0ba 639d 343c 4811 0a3c
00000250: 8113 6dbc 6f5d 173d e056 34bd b072 06bd
00000260: f2e0 eb3c 5865 40bd f053 f6b8 b0ed 1f3d
00000270: 6282 ce3b 1f97 313d 8c95 b1ba 13c1 92bc
00000280: 11db 483d ebf5 e9bc b313 003c 58f6 03bd
00000290: 3fe6 2c3d b5bb 2dbd 7878 423d 9abe 0ebd
000002a0: 780b 4a3d ef08 a3bc df64 a0bc a192 04bd
000002b0: 7947 63bc cf07 02bb 13d8 59bc e884 01bd
000002c0: 9939 b43c 4b2a 33bd 0130 51bd 1cbc 0e3c
000002d0: e044 b7bc d572 7b3c 75fb fbbc 1dd3 1ebd
000002e0: 4b77 f23c 750b b53c 8416 503b 6d85 0b3d
000002f0: 7ba8 13bc 7e51 213d ea7c cdbc 0056 b33c
00000300: 447c dc3c fd9a 1bbd 8f2b 323d b805 e6bb
00000310: 9eb5 19bd 16ae 6bbc 51c7 32bd 3855 593b
00000320: 9e77 fbbb 69ab 263d 7766 f5bc 6b05 38bd
00000330: 64c6 e2bc 771f cd3c 591d 2fbd d2ea 0fbd
00000340: e400 03bd 4038 5e3d 7472 0cbd 9fc9 283c
00000350: 16f3 a2bc 878b 2bbc 9971 d43c 3e74 2a3d
00000360: 6e46 d03c 28bb f8bc 1b60 a6bc 18fa 5ebc
00000370: 4a76 d63c 640e f3bc bd9d bfba 139f 103d
00000380: 6731 c53a caa8 38bc 1255 3b3d e8e1 0b3d
00000390: 9e57 283c facc 41bd 6f85 4a3b 5f4b 1f3d
000003a0: 6e84 0a3b 4c52 0ebd 7c5c 02bd b8bb aa3c
000003b0: dcc8 0bbd 8502 96ba eede 03bc dd27 1abd
000003c0: 450b f23b 8ffc 48bb 4803 20bd 8485 c9bb
000003d0: ef22 e4bc 4072 f3bc c3f3 12bd 7eee 423d
000003e0: 4d4d ff3c f456 07bc b8a2 183c 19dd fd3c
000003f0: 7066 943c 7be8 5abd dfa3 a43c 5927 433d
0.038985193 -0.034187526 0.023064762 -0.007614321 0.027353248 -0.02786862 -0.023570566 0.027112005
0.006759157 0.015944622 0.018115595 -0.009137332 0.0055947583 0.014378862 -0.010492199 -0.041498147
-0.025687383 0.029627062 -0.03790009 -0.0050190706 0.008716629 0.023251005 0.019890688 0.009351384
0.010195041 0.033896558 -0.0029043313 -0.0036865417 -0.009568702 -0.044988267 -0.019438379 -0.043582305
0.018702205 0.048057064 -0.013395551 0.03506374 0.04393746 -0.051275894 -0.0026017693 0.035630424
-0.03247742 -0.03915349 -0.018942812 -0.039004803 0.022194792 0.02413429 0.01678598 0.015430445
-0.025094708 0.0050613377 0.018847419 -0.025700795 0.025680898 0.028620448 -0.03413158 -0.002309521
0.036122274 0.028249709 0.021073723 0.00072626036 0.027895803 0.0074208444 -0.017537957 -0.0074353404
0.016031565 0.028712295 -0.048519306 -0.030557236 0.033326607 -0.044068534 -0.0153494235 0.031665105
-0.027026754 -0.026238184 0.0032180033 0.04187508 0.008015043 -0.01209503 -0.048226327 -0.0009948278
0.030434716 -0.03601982 0.017469993 -0.013288774 -0.041433334 -0.025526693 -0.01218511 -0.045521285
-0.04368875 0.0007735166 -0.042112976 0.041798744 0.025452176 0.032841615 -0.018715834 -0.023909846
0.009096373 0.037981823 0.008959335 -0.021764044 -0.0029120708 0.022980051 -0.026871666 -0.015992232
-0.027861161 -0.041677203 0.032040954 -0.029568426 0.021697221 0.0034251194 -0.012083694 0.02757557
-0.032474156 0.007717901 0.025234895 -0.020833 0.009747523 0.027645592 0.03171452 0.027189305
0.048651684 -0.036812693 -0.03277548 0.018329604 0.005233152 -0.04984928 0.023710163 0.003285962
-0.023430234 0.026219552 0.046681855 -0.006267527 -0.04509181 0.012397073 -0.049225748 0.00390214
-0.011108738 0.020178916 -0.049070552 0.045474097 -0.017648203 -0.0028017475 -0.0026139019 0.016427364
0.042107653 -0.0013482458 0.011023852 0.008426972 -0.014469982 0.03695434 -0.044028163 -0.03282422
0.028793786 -0.04697165 -0.00011745829 0.039045036 0.006302164 0.04335701 -0.0013548597 -0.01791433
0.049037043 -0.028559646 0.007817197 -0.032217354 0.042211767 -0.04241534 0.04747817 -0.03484974
0.049327344 -0.01990172 -0.01957935 -0.0323664 -0.013872021 -0.001984108 -0.013296145 -0.03162089
0.022000121 -0.043741506 -0.05107117 0.008711841 -0.02237171 0.015347202 -0.030759552 -0.038775552
0.029597899 0.02210019 0.0031751702 0.03406279 -0.009012337 0.039384358 -0.025083978 0.021891594
0.026914723 -0.037989605 0.043498572 -0.0070197247 -0.03752672 -0.014384767 -0.043647114 0.0033162367
-0.0076741716 0.040690813 -0.029956086 -0.044927042 -0.02768249 0.025039418 -0.042752597 -0.03513605
-0.03198327 0.054252863 -0.03428884 0.010301976 -0.019891303 -0.010470278 0.025933074 0.041614763
0.025424208 -0.03036268 -0.020309499 -0.013609432 0.026179451 -0.029669948 -0.0014619153 0.035307955
0.001504463 -0.011270711 0.045735426 0.034150988 0.010274796 -0.04731462 0.0030902287 0.03889024
0.0021136063 -0.034746453 -0.03182648 0.020841464 -0.0341271 -0.0011444843 -0.008048756 -0.037635673
0.0073865973 -0.0030668115 -0.03906563 -0.0061499495 -0.027848689 -0.029717565 -0.035877 0.047590725
0.03116479 -0.008260477 0.009316139 0.030989217 0.018115252 -0.053444367 0.020097671 0.047644947

fc.bias f4 [120]
00000000: eb33 1bbb d4ef 3b3c d14d 5b3c 7529 863c
00000010: 19a4 573c f80a cd3c 8198 a6b9 498e 79bb
00000020: f744 593c dafa 173c f841 383d 6c1c 05bd
00000030: e6c3 293d f4f0 28bd 79ed cabc d3fa 2dbd
00000040: e214 513c 061f f6bc 1359 05bc e3c4 2bbc
00000050: 1722 aebb b8a9 aabc 9a5e 373d f2df 013b
00000060: 4719 303d 0cf5 13bd 92e6 b23c ae51 f53c
00000070: 9158 3bbd a5f8 5bbd 663e 39bb 36a6 90bc
00000080: 60e5 c73c a4f5 31bd 91d7 e73c 4b70 723c
00000090: 1f48 a2bc e1b2 77bb 03e1 c9bc c39a 49bd
000000a0: cee6 85bc 3a90 0bbc 94d9 d03c cd87 ebbc
000000b0: aa8a ad3c ed7b e53c 8186 32bd 697a 16bd
000000c0: 2cc2 a8bb 0986 2c3d 2b16 0ebd 732b bcbc
000000d0: 8d58 02bc 66d8 1b3d eaba b9bc 0011 b93c
000000e0: 2a3f cb3c 5972 2f3d ea34 3c3d fc0f 173d
000000f0: fd85 ae3c 6fb2 17bc 4622 cebb 7828 203d
00000100: 8e62 283a 9299 57bd 1400 113d 80d9 1b3d
00000110: 1ccf e3bc bda5 dd3c 20d3 1e3d bf26 18bc
00000120: 8f06 5e3b 6538 12bc cf47 ff3c a0b9 93bc
00000130: 4209 dc3c 9d7f 903b da45 383d dfe3 14bd
00000140: 3d75 3a3d 09fb 713b a3bc 04bd fecc c5bc
00000150: ecaa 7b3c 32bd f3bc 137d 0abd eb4e c43c
00000160: 6146 583c c719 12bd 3ea4 c1bc 104d 58bd
00000170: 4e0b 943c 8e10 a6bc 79ae 84bc c938 e23b
00000180: 4d9c 9abc f812 4a3c a31a 2b3d 44cd 013d
00000190: 3497 cd3c ed65 e63a db4c a13c 3e0a cebc
000001a0: d4ad 123d e238 ba3b 221a 013d 8ae4 35bd
000001b0: 83ea 413d a989 0ebc b486 07bd 0381 aabc
000001c0: 8f12 e0bc 9a8e 443d fa4b 1a3d 332e 433d
000001d0: 6b0b f7b9 b071 be3c b3d9 d63b df23 61bb
-0.0023682069 0.011470754 0.013385252 0.01637719 0.0131616825 0.025029644 -0.00031775612 -0.0038079193
0.013261071 0.009276116 0.044984788 -0.03249781 0.04144659 -0.041245416 -0.024771439 -0.042475533
0.0127613265 -0.03004409 -0.008138913 -0.010483953 -0.0053141224 -0.020832881 0.044767953 0.001981732
0.042992856 -0.036122367 0.02183846 0.029946174 -0.04573876 -0.053703923 -0.0028265952 -0.01765738
0.024401367 -0.04344715 0.028301032 0.014797281 -0.01980978 -0.003779583 -0.024643427 -0.049219858
-0.016345408 -0.008518273 0.025494374 -0.028751278 0.021184284 0.028013194 -0.043585304 -0.036737833
-0.0051501 0.042120013 -0.03468911 -0.022969937 -0.007955682 0.03804817 -0.022672135 0.022591114
0.024810392 0.04283366 0.0459489 0.03688048 0.021304125 -0.0092588505 -0.006290707 0.039101094
0.0006423377 -0.05263669 0.035400465 0.03804922 -0.027808718 0.02705657 0.038775563 -0.009286582
0.003387842 -0.008924578 0.03116217 -0.018032849 0.026859883 0.004409744 0.04498849 -0.036350127
0.045521963 0.003692331 -0.03240646 -0.0241456 0.015360575 -0.029753301 -0.033810686 0.023963412
0.013200373 -0.035669114 -0.023637887 -0.052807868 0.018071797 -0.020271566 -0.016196476 0.006903742
-0.018873358 0.012333624 0.04177345 0.031689897 0.025096513 0.0017577984 0.019689968 -0.025151368
0.035810307 0.0056830505 0.031519063 -0.044407405 0.04734279 -0.008699813 -0.033087447 -0.02081347
-0.0273526 0.047987558 0.037670113 0.04765148 -0.00047120018 0.02324757 0.0065567135 -0.0034353656

fc1.weight f4 [84, 120]
00000000: 3e2f 21bb 717c 873c 1cd3 31bc 8d59 13bd
00000010: ddb0 77bd c2d4 a23c 4ec7 a0bd 13da 19bd
00000020: a5eb 8d3d b624 01bd 7446 14bd 7e2c 7cbd
00000030: 882a 8f3d c95e b43d 89a5 7fbd 8c5a 873d
00000040: da66 af3a e023 ce3c 16f5 9f3d 4522 843d
00000050: 1d85 65bd ded2 253d 8237 bc3c a2f2 8dbb
00000060: 68c0 a63d 37ec d7bc 2cd9 e13c 1917 8f3d
00000070: e3d2 a1bd d6ea 86bd 6db2 1b3c c6cf 903d
00000080: 38c9 243d 382c 4e3d f157 2cbd 897f 133c
00000090: 2a58 2e3d e4eb 82bd 191a a83d 45fd adbd
000000a0: 909e 68bd 5f5f a53d d5fc 003c df45 debb
000000b0: 138d 38bc 316f b0bd 3458 8e3d 543a dc3b
000000c0: 41d3 acbd 6dff 41bd b1a1 2aba c37c 9abd
000000d0: 3584 70bd 50e5 be3d efc4 e8bc d558 a7bd
000000e0: 2119 733d 3f47 223d f359 64bd 8fd0 82bd
000000f0: 97a7 6cbd 367c a33d e29a 54bc 5ae1 933d
00000100: 224a 573d ef2e fb3b 1e96 7dbd 34f0 b23d
00000110: f056 3d3c 8e8a 9bbb 982b 113d a83e 8cbd
00000120: 0233 ad3b 78bb 76bd bdca 83bd d8e3 d9bc
00000130: 1a3c 49bc 61ee 873d ec7d f73c 505b 28bc
00000140: 2f08 5f3d cc8e ae3d 73c1 513d ab9f 01bc
00000150: 34e3 99bd 42cd 17bd 81d2 2a3d 6473 f23c
00000160: 291b 4abd 827b 2abc f70f 43bd 54df 6ebd
00000170: daf6 b0bd 7881 b33b 01ba 9ebd 5319 40bd
00000180: b70b afbd 8e51 99bd 63b8 8ebd 69db 6b3d
00000190: 305f 9d3d d4e2 b9bd ce92 f5bc 49a0 6ebc
000001a0: 8223 80bd 9f74 9e3d 21f3 613d d1b3 9fbc
000001b0: 8e05 533d 5d0c 963d 09b8 483d 9854 8ebd
000001c0: dd93 48bd f7b8 fabc f50a b93d 211b 8fbb
000001d0: b828 acbd 54d0 5ebd 89ef 00bd af6d 9a3a
000001e0: 0995 6bbd 7039 603c 4f86 bf3b ac5e 1f3d
000001f0: 84bb fd3c e315 ca3c 186f a9bc 5b35 37bd
00000200: fcae 6b3c b611 54bd 7ffe ba3d bf48 96bd
00000210: de9d 54bb 793f 6a3d bf24 e23c a67e 55bd
00000220: b4d9 a43d fe3c 3bbd 648b 8a3d 1633 abbd
00000230: bf5b 243d 45e9 a2bd bb91 bc3c 95b2 53bc
00000240: 6f19 81bd 48ef 553c 4099 42bd 87e2 263c
00000250: 0814 8dbd ba01 a9bd aa73 30bd 6eea a8bd
00000260: 6738 8abc 0cd1 f93c 4c45 533d 0fb5 84bd
00000270: 95bd afbc e938 1bbd 3fb9 993d e6ac 073d
00000280: f486 053c 7c7c 94bd f597 9dbb 5574 aebd
00000290: ad0b f93c 01c5 5f3d 1f8d 6d3c 371f f7bc
000002a0: b304 97bd f48e 9ebd cba4 6d3d 7999 0a3c
000002b0: 98c4 bd3c c3dd b2bd 9718 07bd 1991 5b3d
000002c0: 52e2 933d 84b5 c9bb e5ee 86bd cfa0 993d
000002d0: 5345 0f3d 361f 653b 6615 09bd 7aa4 923d
000002e0: 440c 0ebd 3af4 e1bc 18f1 953d 8469 68bd
000002f0: a129 9a3d 0a02 40bd 7d20 8dbd 03eb b83d
00000300: 76c4 1cbd d0c3 a4bd 5606 843c dcb9 dbbc
00000310: 314c 09bd a5cb 9a3d 5423 193d 5113 e0bc
00000320: 73cf 12bd 2c14 8a3d 93e5 1dbc cbce 92bd
00000330: b489 a9bc fb9a 193c fa31 a5bd e668 b5bc
00000340: a24a b23d ad7c 52bd b3df 91bd 9248 95bd
00000350: 7140 2dbd 6624 433d 8cdb 82bd 9f53 bc3b
00000360: aa2b 993d 133c 2e3d 1144 643d 66c6 923d
00000370: 9f18 103b 5d94 353d 05ac 103d 3c87 843d
00000380: 4662 aa3d f683 273c c1b2 d13c bdc6 673d
00000390: fef6 e3bc 45d9 813d 4551 2ebd 4701 9dbd
000003a0: 8be1 a13d f688 bdbb a4e7 fd3c 5398 acbd
000003b0: 8e6d 8ebd 5618 f53c 2194 e13c 97c0 2b3d
000003c0: 9152 81bd d44f a23d e4a5 9d3a b8e0 b4bd
000003d0: 3021 6abd f472 913c fea6 9f3d ea67 a13d
000003e0: eb4f 913d de92 d73c 8a3e 6abd 7cc0 8f3d
000003f0: 6a6c 05ba 4fc8 9bbc d074 683d 76fa aabc
-0.002459481 0.01653883 -0.010853555 -0.035974074 -0.060471404 0.019876841 -0.07850514 -0.037561487
0.06929711 -0.03152915 -0.0362 -0.06156587 0.06990534 0.08807141 -0.062413726 0.06609067
0.0013382093 0.02516359 0.07810418 0.06451849 -0.05603515 0.0404843 0.022975687 -0.0043319026
0.08142167 -0.026357753 0.027569376 0.069868274 -0.079015516 -0.0658776 0.009502989 0.0707088
0.04023096 0.05033514 -0.042076055 0.009002575 0.04256455 -0.06392649 0.08208103 -0.08495573
-0.056791842 0.08074831 0.00787278 -0.0067832316 -0.011264103 -0.08614958 0.06950417 0.0067208204
-0.08438731 -0.047362734 -0.0006509079 -0.07543328 -0.058719832 0.09321082 -0.028414218 -0.0817124
0.059350137 0.039618727 -0.055749845 -0.06387436 -0.057777014 0.07982676 -0.01297638 0.07220717
0.052560933 0.007665507 -0.06191074 0.08737221 0.011556372 -0.0047467416 0.035441965 -0.06847888
0.0052856216 -0.060237378 -0.06435154 -0.026597902 -0.012282396 0.06637264 0.030211411 -0.010275677
0.054451164 0.0852333 0.05120988 -0.007911603 -0.07514039 -0.037060983 0.04170466 0.029596038
-0.04934231 -0.010405423 -0.047622647 -0.05831845 -0.08640833 0.0054780804 -0.07750321 -0.04689915
-0.08547156 -0.074862584 -0.06968763 0.057582293 0.07684171 -0.09076467 -0.029977228 -0.014564582
-0.062567726 0.077370875 0.055163506 -0.019494923 0.05151897 0.07326577 0.049003635 -0.06949729
-0.04896914 -0.030605776 0.09035293 -0.0043672477 -0.08406204 -0.054397896 -0.03147844 0.0011781956
-0.057515178 0.013685569 0.0058448683 0.038908646 0.030973203 0.02466864 -0.020682856 -0.044728618
0.014384981 -0.051774703 0.091305725 -0.07338094 -0.003244273 0.05718944 0.027605413 -0.052122734
0.08049336 -0.045712464 0.06764868 -0.08359353 0.04012656 -0.07954649 0.023018708 -0.012920995
-0.06303679 0.013057537 -0.04750943 0.010185844 -0.06888586 -0.082522824 -0.043079056 -0.08247839
-0.016872598 0.03049519 0.05157976 -0.06479847 -0.021452704 -0.03789607 0.07506036 0.033123873
0.008149851 -0.07250306 -0.0048093745 -0.08518282 0.030401075 0.054631237 0.014498978 -0.030166252
-0.07373943 -0.0774211 0.058018487 0.008459442 0.023165032 -0.08733704 -0.032982435 0.053605173
0.072209015 -0.0061556716 -0.06588534 0.07501375 0.034978222 0.003496123 -0.033467673 0.07160278
-0.034679666 -0.027582277 0.073213756 -0.056741253 0.07527471 -0.046876945 -0.06890962 0.090292
-0.038273297 -0.08045161 0.016116302 -0.026822023 -0.033519927 0.07558373 0.037387207 -0.02735296
-0.03584237 0.06742129 -0.009637254 -0.07168349 -0.020695545 0.009375329 -0.08066173 -0.022144746
0.08705641 -0.05138843 -0.07122745 -0.07289232 -0.042297784 0.047642134 -0.063895315 0.005747273
0.074790314 0.04253776 0.055728976 0.07166748 0.0021987332 0.044330943 0.0353203 0.064711064
0.083195254 0.010224333 0.025597932 0.056586016 -0.027827736 0.06340269 -0.042557973 -0.07666259
0.07904347 -0.0057841493 0.030994244 -0.08427491 -0.0695449 0.02991883 0.027536454 0.041931715
-0.063145764 0.07925382 0.0012027589 -0.08831924 -0.057160556 0.01775501 0.07795523 0.07881148
0.07095321 0.026315149 -0.05718855 0.07019135 -0.00050897023 -0.019016413 0.056752026 -0.020871382

fc1.bias f4 [84]
00000000: f2df 2ebd 26d0 b23b 5af9 5fbc ed3b 6ebd
00000010: 4c17 71bd 2315 793d 5667 b0bd 727c babc
00000020: 7d24 88bd 5ade 543d 93d0 8bbd 0c91 973d
00000030: a6a9 003d 5a78 10bd cf09 c33c 6c94 963c
00000040: 7d87 443d 9b5b 4e3d ce93 bfbd 2cb6 84bc
00000050: 51e1 763d 97ae 913d c54e 9fbd b9fd 123d
00000060: 6bac 3b3d 2ef1 713c 63f9 9a3d d128 87bd
00000070: 6b77 c33c b1cb 62bb 197a 61bc a9b3 1fbd
00000080: 1654 7fbc 8fab 94bd f6d8 88bd 48a0 b23c
00000090: 5f48 3dbd 6c17 f7bc e1e5 b1bd 9ed1 d5bc
000000a0: e2ac 1c3c 6505 463d 6353 2ebc b4a4 9fbc
000000b0: dfe6 643d 5895 77bd a98f 723d 9e65 46bc
000000c0: 0f6f 3bbd 0399 b73d 73a2 9bbd f06b cebb
000000d0: f8c9 80bd 91f0 073d d1fd 19bd 395a 1cbd
000000e0: ecd8 373d 7a81 25bc 856f debc 5589 0bba
000000f0: cc86 8d3d 7971 b43d 6326 6c3c 841e 6abd
00000100: be28 b7bd 07c5 1d3d 7e0a 69b9 3094 86bd
00000110: 6f88 4f3d 5156 aebd a823 423d 372e 61bd
00000120: 895d 453d ef0a afbd 5e26 29bd d42e 643d
00000130: e0e8 843d 238f b3bd 308b ca3c e1d2 aa3d
00000140: 4e5e 37bd 2767 b4bd 40d4 333d 310d 963c
-0.04269404 0.005456942 -0.01367029 -0.05816262 -0.05886011 0.060811173 -0.0861346 -0.022764418
-0.066475846 0.051969863 -0.06826892 0.07400712 0.03141179 -0.035271026 0.023808388 0.01838132
0.047980774 0.05038033 -0.093543634 -0.016200148 0.060273472 0.071133785 -0.07778696 0.0358865
0.045818727 0.014766974 0.07567098 -0.06599582 0.023860654 -0.0034606273 -0.0137620205 -0.038989697
-0.0155840125 -0.07259285 -0.06682007 0.021804944 -0.046211597 -0.030162536 -0.08686424 -0.02610093
0.009562703 0.04834499 -0.010639998 -0.019487716 0.05588424 -0.06044516 0.059219036 -0.012109188
-0.04576021 0.089647315 -0.07599344 -0.0062994882 -0.062885225 0.033188406 -0.037595574 -0.03817198
0.044884607 -0.01010167 -0.027152786 -0.0005322893 0.06910476 0.08810706 0.014413449 -0.05715801
-0.08943318 0.038517978 -0.0002222452 -0.06571233 0.050667223 -0.08512557 0.047397286 -0.054975715
0.048184905 -0.08547007 -0.041296355 0.05570872 0.0648973 -0.087675355 0.024724573 0.08341003
-0.04476767 -0.08808737 0.04390359 0.018316837

fc2.weight f4 [2, 84]
00000000: d2c5 14bd a2b6 883d bd17 81bd 62f1 a53d
00000010: f78e e53c 7ca2 203d 3ca8 21bd c21f 10bd
00000020: e407 b93c fede c1bb 4b69 61bd f107 933d
00000030: 1a49 ecbc 2a56 75bd 9711 e0bb 8ea7 cf3d
00000040: f1eb 84bd ff5e 19bd ab58 38bc facb 1ebd
00000050: d9dc d43d 15c1 a5bd a6c7 ea3b ea4c a03d
00000060: 7831 1a3d 8d68 8bbd 070d b33d 6afc 7f3c
00000070: 583c 593d 93c5 9b3d 4d2f 953d bbbd 873c
00000080: 7c80 68bc e680 cbbc 70b0 193d 2f21 3cbd
00000090: fed2 223d 587a a63d 10e9 a639 f916 c5bd
000000a0: 9fb2 d03c 8791 fdbc a00b 583c 41bf 043d
000000b0: 1b3d 643c d352 d23b 6c91 363d 03b6 dfbc
000000c0: 3417 203d d805 8fbc d74f 9ebc 10a5 6f3c
000000d0: 6147 11bd 8f06 313d 50ee 673d 511e 9bbd
000000e0: be14 01bd 56e7 643a f089 5fbc c534 cd3d
000000f0: 44b9 023c 11df bc3d 9635 1b3c 6381 d53d
00000100: e070 b33d f6de f23c 0c0f 743d c401 0a3d
00000110: 8fea 4f3d 8a16 95bd af69 343d 2c29 993d
00000120: 7ef0 953d 2ba8 673d 18eb 863c 25c0 69bc
00000130: 4c41 8e3d a7db 66bc 1b99 cfbd aba0 b73d
00000140: 455b 843d c080 2b3d f20a 50bd b725 2e3d
00000150: c343 80bd 9b0d 26bd 39c6 bc3d 22ce b63d
00000160: 5bac dcbb e862 d1bd c11c 8d3c 7d73 e4bc
00000170: 83bd b4bd 7d7e 3bbd d4f9 9a3c 2562 ac3d
00000180: 999e 2fbb 827b cdbd 57c8 91bd 747f b33d
00000190: 25f9 dc3b de9e 1e3c 9777 fd3b 6d2a aa3c
000001a0: 1510 dfbb 46d3 3f3c d779 b13b fa7f 85bd
000001b0: a39b a73d c028 3d3d 48c5 0bbc 7ddb 7cbc
000001c0: b4ba c83d c37c debd 11ab bebc 871d 4ebd
000001d0: 606e dfbd 026e f63c 130d b8bd 3515 92bd
000001e0: 7827 8dbd 9576 b9bc 5b91 17bd 7ddc cebd
000001f0: 981d 4fbd 0369 383d 5193 9d3d e8ce 723c
00000200: 7d7c 26bd 575c 593d 3033 983c c7bd e53a
00000210: 9a71 58bc d79f 9e3d 9f44 7dbd c4e2 d9bc
00000220: c604 cfbd 6d8c 5dbd 3270 2dbd 5828 f0bb
00000230: 6d3f 393c 5cf8 793d 117b 24bd d02b 84bd
00000240: 7a1f 523d 62c3 5e3d 9fab a2bd 8d92 edbc
00000250: f0aa 873d 5d45 893d a929 edbc 58b9 3dbd
00000260: 546d 6a3d 2642 643d 28f0 7b3d 9fe6 023d
00000270: 08e9 aebd 7946 0c3d 6347 0f3d 8dbe 523c
00000280: 1c56 913d 6451 81bc c94e b6bd cda0 9b3d
00000290: 8154 bc3b 06ac 393c 96ed 823a 0a9a 9abd
-0.03632147 0.066754594 -0.06303356 0.08102681 0.028022273 0.039217457 -0.03946708 -0.035186537
0.02258677 -0.0059164753 -0.055032056 0.07179249 -0.028843451 -0.059896626 -0.0068380344 0.101393804
-0.06490315 -0.03744411 -0.011251609 -0.038768746 0.10393686 -0.08093468 0.007164913 0.0782717
0.037644833 -0.06807051 0.08742719 0.015624145 0.053036064 0.07606044 0.072844125 0.016569963
-0.014190789 -0.024841737 0.03752178 -0.045930084 0.039752 0.08128804 0.00031835632 -0.09623522
0.025475798 -0.030953182 0.013186365 0.032408956 0.013930584 0.006418565 0.04457228 -0.02730847
0.03908463 -0.017458841 -0.01932518 0.014626756 -0.035468463 0.043219145 0.056623757 -0.07574142
-0.031513922 0.00087319815 -0.013643727 0.100198306 0.007978741 0.09222234 0.009473225 0.10425069
0.087617636 0.029647332 0.059584662 0.03369309 0.050760802 -0.072796896 0.0440461 0.07478556
0.07321261 0.05655686 0.016469523 -0.014267002 0.06946048 -0.014090455 -0.101366244 0.08966192
0.06462721 0.041870832 -0.05079169 0.042516436 -0.062629245 -0.04054032 0.092174955 0.089260355
-0.0067344136 -0.10223943 0.017225625 -0.0278871 -0.08825209 -0.045774926 0.018917955 0.08417157
-0.0026797412 -0.10033323 -0.0711829 0.08764544 0.0067435675 0.009681432 0.0077352035 0.020772183
-0.006807337 0.011708086 0.005416136 -0.0651855 0.08183982 0.04618144 -0.008530922 -0.015433189
0.09801236 -0.1086364 -0.02327493 -0.05032113 -0.10909724 0.030081753 -0.08986869 -0.07132951
-0.06892294 -0.022639552 -0.037003856 -0.101006486 -0.050565332 0.045022022 0.07694114 0.014819838
-0.040646065 0.053066578 0.018579096 0.0017527872 -0.0132106785 0.07745331 -0.06183302 -0.026597388
-0.10108332 -0.054089 -0.042343326 -0.007329028 0.011306626 0.06102787 -0.040156428 -0.06453669
0.05129955 0.05438555 -0.079428904 -0.029000545 0.066244006 0.06702683 -0.02895053 -0.046319336
0.05723317 0.055727147 0.061508328 0.03195822 -0.08540541 0.034246895 0.03498019 0.012862814
0.07096502 -0.01578588 -0.08901746 0.0759903 0.0057473783 0.0113325175 0.0009989019 -0.07548912

fc2.bias f4 [2]
00000000: 8476 2bbd 781d d7bc
-0.041861072 -0.026259169
