model_lenet_5.pt (torch, 250922 bytes, 18 tensors)

layer1.0.weight f4 [6, 1, 5, 5]
-0.09956729 0.16471691 0.06532623 -0.021212725 -0.053289548 0.1329612 -0.17424065 -0.0338078
-0.17441201 -0.15218323 0.04709168 0.13741378 0.1432568 -0.13983333 0.09984427 -0.07964839
0.053369753 -0.07891833 -0.12065081 -0.0036993662 0.14896162 0.12030395 -0.050791543 0.13546498
-0.05080706 -0.115890086 -0.098772034 -0.17039038 -0.15266061 -0.19422005 0.114998 0.092198394
0.09394986 -0.04597516 -0.122706264 0.00062293006 -0.17658123 -0.1490929 -0.17613749 0.0038395226
0.17422365 -0.0014482914 -0.18106031 -0.1172465 -0.09321985 0.16212122 -0.029893586 -0.067396656
0.04444812 0.101002276 0.108743176 0.07210731 0.096771404 -0.00970409 0.17029825 0.12171409
0.047235165 -0.09362364 0.025933895 0.18118496 0.15475234 -0.109808415 -0.17797767 0.110722214
-0.13937385 -0.1881329 0.1637083 0.035999507 0.07477406 -0.075189814 0.14197758 0.07665891
-0.0056441613 0.14880684 0.19484238 -0.06935977 -0.1631274 0.16911207 -0.04292101 -0.16969153
0.13417463 0.095221125 0.19025415 0.13018812 0.17222333 0.046486847 -0.12918438 -0.0078074015
0.014379788 0.028653542 -0.13193606 -0.14850365 0.08905601 0.051178463 0.0039483435 -0.09915705
0.1349491 -0.033532046 -0.20319702 0.03971404 0.10615861 0.13777563 -0.05821947 -0.14638688
0.17543432 0.15817039 0.12139579 0.04451062 0.11713866 -0.18693899 0.021363366 -0.1397251
0.042452816 0.112907186 0.1644436 -0.04771187 0.119669676 -0.029362278 0.08700853 0.12762737
0.07332287 0.033628087 -0.009576516 0.18056166 -0.16499299 -0.010021592 0.08537683 -0.041005235
-0.17311288 -0.110848695 -0.043251753 0.05572475 -0.08652441 -0.08644186 0.20132257 0.01507031
-0.0040488136 0.11017312 -0.15139355 -0.16597554 0.0011547101 0.10142134 -0.035505958 0.13637614
0.1294118 0.13264962 0.10007469 -0.01564138 -0.03606761 0.1379028
00000000: efe9 cbbd 8dab 283e c2c9 853d 4fc6 adbc
00000010: 2446 5abd fb26 083e 246c 32be 0c7a 0abd
00000020: 1099 32be ecd5 1bbe 35e3 403d 33b6 0c3e
00000030: e9b1 123e 7830 0fbe 277b cc3d b21e a3bd
00000040: 3e9a 5a3d ef9f a1bd c617 f7bd 1171 72bb
00000050: 6589 183e eb61 f63d cb0a 50bd 55b7 0a3e
00000060: 101b 50bd c857 edbd fe48 cabd d17a 2ebe
00000070: 1053 1cbe 9fe1 46be 1284 eb3d 83d2 bc3d
00000080: c968 c03d 7350 3cbd 6c4d fbbd 214c 233a
00000090: b6d1 34be cfab 18be 635d 34be 80a0 7b3b
000000a0: af67 323e 98d4 bdba e067 39be ef1e f0bd
000000b0: 0cea bebd 1b03 263e 65e3 f4bc 4207 8abd
000000c0: 3b0f 363d 48da ce3d beb4 de3d ffac 933d
000000d0: 1630 c63d e7fd 1ebc aa62 2e3e 3d45 f93d
000000e0: a979 413d c0bd bfbd 5273 d43c 8d88 393e
000000f0: 6677 1e3e 3ce3 e0bd c73f 36be 54c2 e23d
00000100: 05b8 0ebe e9a5 40be 26a3 273e 3874 133d
00000110: 2423 993d 1efd 99bd 9262 113e 59ff 9c3d
00000120: a8f2 b8bb d260 183e c384 473e 7f0c 8ebd
00000130: df0a 27be b72b 2d3e f1cd 2fbd 9ec3 2dbe
00000140: 1365 093e 4b03 c33d fcd1 423e 0950 053e
00000150: 505b 303e fe68 3e3d e948 04be 3bd5 ffbb
00000160: 3499 6b3c d5ba ea3c 3f1a 07be 5711 18be
00000170: ff62 b63d 82a0 513d 1b61 813b da12 cbbd
00000180: 1930 0a3e e658 09bd e112 50be 30ab 223d
00000190: af69 d93d 0e15 0d3e 8a77 6ebd 71e6 15be
000001a0: 0ea5 333e 6bf7 213e 5b9e f83d c550 363d
000001b0: 65e6 ef3d ef6c 3fbe 3a02 af3c 1914 0fbe
000001c0: 01e3 2d3d e23b e73d e763 283e 866d 43bd
000001d0: 6015 f53d 2989 f0bc 8731 b23d c0b0 023e
000001e0: 4d2a 963d 9bbd 093d d2e6 1cbc 28e5 383e
000001f0: ecf3 28be 9a31 24bc 0cda ae3d 1bf5 27bd
00000200: 8144 31be a404 e3bd c028 31bd a33f 643d
00000210: b633 b1bd 6e08 b1bd 8127 4e3e 76e9 763c
00000220: e9ab 84bb 72a2 e13d e906 1bbe 7ef5 29be
00000230: a459 973a feb5 cf3d b26e 11bd 30a6 0b3e
00000240: 8784 043e 4dd5 073e f6f3 cc3d 5a22 80bc
00000250: a1bb 13bd 6436 0d3e

layer1.0.bias f4 [6]
0.16953516 0.11741912 0.10553377 -0.19506343 0.0746171 0.09945042
00000000: a09a 2d3e 7079 f03d 1722 d83d b5be 47be
00000010: dad0 983d a9ac cb3d

layer1.1.weight f4 [6]
1.0016679 1.0071323 1.005486 0.99736124 0.9955422 0.99117744
00000000: a736 803f b6e9 803f c4b3 803f 1153 7f3f
00000010: dbdb 7e3f cebd 7d3f

layer1.1.bias f4 [6]
0.0043261456 0.009256643 0.010630945 -0.0050490084 0.004251428 0.0013657494
00000000: 57c2 8d3b 2da9 173c 6a2d 2e3c 2772 a5bb
00000010: 904f 8b3b f202 b33a

layer1.1.running_mean f4 [6]
0.12637275 0.17894161 -0.018932318 -0.16197203 -0.03190821 0.055493344
00000000: dc67 013e 783c 373e f317 9bbc ffdb 25be
00000010: 2fb2 02bd fd4c 633d

layer1.1.running_var f4 [6]
0.22638516 0.40264904 0.3708063 0.22343852 0.35253727 0.22963636
00000000: 83d1 673e 0428 ce3e 53da bd3e 11cd 643e
00000010: c47f b43e cb25 6b3e

layer2.0.weight f4 [16, 6, 5, 5]
0.068107925 -0.025776714 0.048075825 -0.056610685 0.041494388 0.060144685 -0.048848048 0.051280383
-0.07690856 -0.0022394406 -0.037074074 -0.029306155 0.03973363 -0.04392988 -0.05280896 0.0149028655
-0.027853258 0.04408718 -0.015103987 0.07259485 0.023122305 0.02035196 0.00890218 -0.08113288
-0.07086266 0.009432351 0.016382974 -0.06299668 0.020138491 -0.06902547 -0.07201911 -0.01224074
-0.080168515 0.0070514223 0.02263714 0.016845396 0.017628439 -0.0046737767 -0.08673352 0.06521173
0.051904507 0.01844296 -0.08080677 0.017382348 0.067695774 -0.059944067 0.021559669 -0.08273104
0.013918841 0.02483573 0.06172072 -0.017505633 0.053894665 0.0044671693 0.022518415 0.06725397
0.044593994 -0.06669513 -0.0045199506 0.0010050683 -0.059045557 0.034937333 0.07399876 -0.039686877
-0.063384846 -0.046149403 0.014286838 0.0013086849 0.048151486 -0.0496491 0.07368676 0.075188145
0.014157786 0.05763886 0.07822928 0.004142546 0.014835073 0.009377153 0.04371183 0.05253995
0.04770337 -0.03705794 -0.009417743 -0.051778004 0.012420886 -0.07683827 -0.06937764 0.012922112
-0.057204966 -0.03036022 -0.06866631 0.061881233 0.0009529 -0.060920637 -0.02260532 -0.048732713
0.059754223 -0.064735584 0.0151258 -0.047764372 -0.054523733 0.07936428 -0.035531133 0.039497092
0.0623535 -0.018488098 -0.013959968 -0.028637838 0.018106375 -0.052310567 0.040994145 0.07177108
0.02307786 0.07029951 0.02148385 -0.034804527 -0.008421397 -0.020653915 0.04067543 -0.0031989983
-0.028320214 0.0736173 -0.06080395 0.03108245 0.069385275 -0.053141225 -0.07169497 -0.083015494
0.02321026 0.011544228 0.06593129 -0.04590353 0.02297279 -0.0071614287 0.078585126 -0.061452623
0.03224274 -0.072071634 -0.07146603 -0.056375705 0.06603401 -0.0035004523 -0.016648341 -0.033140764
-0.006870121 -0.06049257 0.002250592 0.04895604 0.043812353 0.05038187 -0.02660206 0.06319808
0.028812593 0.06969158 -0.02674178 0.033013105 -0.012201484 0.07024539 0.06498383 0.040327616
0.0762295 -0.036368504 0.01142697 -0.054332275 -0.03626726 -0.07017129 0.043563463 0.06359808
0.042819865 -0.07465641 -0.07105559 0.031053245 -0.026244309 0.043359835 -0.0041123116 -0.076914914
-0.035153124 0.08330765 -0.0032598942 -0.05566756 0.0030576237 -0.06332155 -0.0049881777 -0.041722637
-0.013751089 0.028404752 -0.06083277 0.083579406 -0.064278744 0.07870098 -0.060102966 0.0021512704
0.065362595 0.08106007 0.068127155 0.058395892 0.07076125 0.064288706 -0.036658514 0.07151748
-0.07525175 0.019343924 0.055703647 -0.006558345 0.026695704 -0.014223127 -0.025478147 0.011484865
0.060641777 0.037536345 0.06551374 0.010765927 -0.045685444 0.005571974 0.019687347 -0.06056685
-0.072276406 0.044406768 -0.015042312 -0.057217706 0.048260294 -0.030825146 -0.011419203 -0.0485546
0.041396145 0.040439714 0.04321999 -0.011418641 0.07138152 -0.069781356 -0.054854006 0.037731785
0.065550715 -0.040681418 -0.07003979 -0.033167448 0.021626897 0.0206924 -0.039625835 -0.048693214
0.0048659677 0.050080977 0.04765178 -0.04866037 0.07182131 -0.005886195 0.028285837 -0.0784669
-0.030192874 -0.007966086 0.06338765 -0.055900622 0.053024046 0.026383076 0.019339947 0.060292482
00000000: 2b7c 8b3d b029 d3bc 28eb 443d 9be0 67bd
00000010: 05f6 293d 465a 763d e414 48bd 610b 523d
00000020: 3c82 9dbd 94c3 12bb fcda 17bd 7613 f0bc
00000030: bbbf 223d d1ef 33bd 354e 58bd 262b 743c
00000040: 842c e4bc c294 343d b776 77bc 9cac 943d
00000050: fd6a bd3c 27b9 a63c 73da 113c ff28 a6bd
00000060: 7120 91bd 268a 1a3c 9635 863c 6704 81bd
00000070: 7af9 a43c 3a5d 8dbd c17e 93bd 628d 48bc
00000080: 642f a4bd 9e0f e73b 8671 b93c 5bff 893c
00000090: 8469 903c 7b26 99bb 58a1 b1bd ba8d 853d
000000a0: d299 543d b115 973c 057e a5bd 6d65 8e3c
000000b0: 15a4 8a3d e987 75bd e79d b03c e46e a9bd
000000c0: da0b 643c 4d74 cb3c dece 7c3d f967 8fbc
000000d0: a7c0 5c3d 5561 923b 8a78 b83c 73bc 893d
000000e0: 31a8 363d 7597 88bd 181c 94bb 7fbc 833a
000000f0: c1d9 71bd 731a 0f3d a98c 973d b58e 22bd
00000100: eacf 81bd 2807 3dbd 5713 6a3c 2e88 ab3a
00000110: 7e3a 453d db5c 4bbd 16e9 963d 3efc 993d
00000120: 0ff6 673c ba16 6c3d ac36 a03d 32be 873b
00000130: ce0e 733c a1a2 193c 2d0b 333d 2134 573d
00000140: 9c64 433d 11ca 17bd e14c 1abc 2c15 54bd
00000150: f980 4b3c 625d 9dbd dd15 8ebd 44b7 533c
00000160: c14f 6abd ffb5 f8bc eca0 8cbd 2d77 7d3d
00000170: 09cc 793a eb87 79bd cb2e b9bc f49b 47bd
00000180: d8c0 743d 1794 84bd 34d2 773c 93a4 43bd
00000190: 4754 5fbd bd89 a23d 1889 11bd b4c7 213d
000001a0: 6266 7f3d 5a74 97bc 5ab8 64bc e699 eabc
000001b0: d253 943c 9b43 56bd 7ae9 273d b7fc 923d
000001c0: c80d bd3c 31f9 8f3d e6fe af3c 318f 0ebd
000001d0: e6f9 09bc 6632 a9bc 489b 263d 49a6 51bb
000001e0: cbff e7bc abc4 963d 900d 79bd 9fa0 fe3c
000001f0: de19 8e3d 9daa 59bd d0d4 92bd 0704 aabd
00000200: 7123 be3c 0024 3d3c fc06 873d 5705 3cbd
00000210: 6f31 bc3c 6baa eabb 3df1 a03d bfb5 7bbd
00000220: f710 043d 4b9a 93bd c85c 92bd 36ea 66bd
00000230: d73c 873d d867 65bb 1a62 88bc 9cbe 07bd
00000240: c11e e1bb 0fc7 77bd ab7e 133b 2186 483d
00000250: 9574 333d 385d 4e3d 90ec d9bc ff6d 813d
00000260: 6308 ec3c 76ba 8e3d 9411 dbbc c038 073d
00000270: bce8 47bc d1dc 8f3d 3e16 853d 922e 253d
00000280: 361e 9c3d 24f7 14bd 3038 3b3c 858b 5ebd
00000290: fa8c 14bd f7b5 8fbd 9a6f 323d b63f 823d
000002a0: e263 2f3d 76e5 98bd 9885 91bd 6063 fe3c
000002b0: 4efe d6bc 159a 313d 92c0 86bb 9185 9dbd
000002c0: b9fc 0fbd 349d aa3d f3a3 55bb ab03 64bd
000002d0: 6a62 483b bbae 81bd de73 a3bb 5be5 2abd
000002e0: 3f4c 61bc 15b1 e83c c82b 79bd ae2b ab3d
000002f0: 93a4 83bd fb2d a13d 872e 76bd 54fc 0c3b
00000300: d3dc 853d d202 a63d 4086 8b3d 8830 6f3d
00000310: 46eb 903d cca9 833d 3d27 16bd c277 923d
00000320: 971d 9abd 2677 9e3c 8229 643d 63e7 d6bb
00000330: f3b0 da3c 1e08 69bc 8cb7 d0bc 042b 3c3c
00000340: 8363 783d b6bf 193d 112c 863d 9263 303c
00000350: a920 3bbd 1b95 b63b 5c47 a13c f214 78bd
00000360: a705 94bd dfe3 353d 0874 76bc 1d5d 6abd
00000370: 96ac 453d 0485 fcbc 9c17 3bbc 30e1 46bd
00000380: 018f 293d 1da4 253d 7207 313d 4015 3bbc
00000390: 7930 923d 87e9 8ebd 98ae 60bd a58c 1a3d
000003a0: 743f 863d 8fa1 26bd 0571 8fbd 97da 07bd
000003b0: e42a b13c 1c83 a93c b34e 22bd 8972 47bd
000003c0: b272 9f3b b621 4d3d 832e 433d 1950 47bd
000003d0: 0d17 933d fce0 c0bb b3b7 e73c 41b3 a0bd
000003e0: 0c57 f7bc 3084 02bc 62d1 813d 0df8 64bd
000003f0: be2f 593d 5221 d83c cf6e 9e3c 40f5 763d

layer2.0.bias f4 [16]
-0.05486876 -0.049221657 0.0813893 -0.0010486327 -0.010496055 0.019167662 -0.06946095 -0.0063257646
-0.054886837 0.057127 -0.03974245 0.0075794435 -0.0042614 -0.07235216 -0.03426595 -0.04340999
00000000: 11be 60bd a69c 49bd 6faf a63d 4672 89ba
00000010: a5f7 2bbc 8005 9d3c 8b41 8ebd 5c48 cfbb
00000020: 05d1 60bd 00fe 693d fbc8 22bd fb5c f83b
00000030: 37a3 8bbb 5f2d 94bd 745a 0cbd acce 31bd

layer2.1.weight f4 [16]
1.0031432 0.9970312 0.9934581 1.0036697 0.9918747 0.99647146 1.0041003 1.0021867
0.99432826 0.9974557 1.0043314 0.99924684 1.0044291 1.0001504 0.9986354 1.0055538
00000000: ff66 803f 703d 7f3f 4553 7e3f 4078 803f
00000010: 80eb 7d3f c118 7f3f 5c86 803f a747 803f
00000020: 4c8c 7e3f 4259 7f3f ee8d 803f a4ce 7f3f
00000030: 2291 803f ee04 803f 92a6 7f3f fdb5 803f

layer2.1.bias f4 [16]
0.0024343967 0.0024240494 -0.0068148947 0.0068126996 -0.005952772 -0.00338378 0.004379836 0.0024666213
-0.0079165585 -0.0057026525 0.0023237974 -0.0019522754 0.0036700305 -0.00050676166 0.0026472106 0.00078727683
00000000: 668a 1f3b cddc 1e3b 7b4f dfbb 113d df3b
00000010: 790f c3bb 68c2 5dbb ba84 8f3b 0aa7 213b
00000020: 74b4 01bc 51dd babb da4a 183b 7ee3 ffba
00000030: e584 703b 33d8 04ba d37c 2d3b 4161 4e3a

layer2.1.running_mean f4 [16]
-0.10168923 0.2010561 0.38651633 0.018943101 0.5090112 -0.059848696 -0.13663706 0.15964389
0.07310966 0.14723803 -0.30441904 -0.263517 0.17358999 -0.050791197 0.089716755 -0.44588402
00000000: 7142 d0bd a6e1 4d3e 78e5 c53e 902e 9b3c
00000010: 8f4e 023f e823 75bd 96ea 0bbe b079 233e
00000020: 84ba 953d 91c5 163e d0dc 9bbe b3eb 86be
00000030: 93c1 313e 6e0a 50bd 6bbd b73d e94a e4be

layer2.1.running_var f4 [16]
0.3293655 0.32872766 0.2974802 0.32410306 0.34144032 0.38946378 0.30871716 0.45384678
0.30278528 0.31277817 0.53709114 0.4541555 0.34184855 0.28726438 0.3287895 0.66553885
00000000: 98a2 a83e fe4e a83e 534f 983e d6f0 a53e
00000010: 44d1 ae3e cc67 c73e 2d10 9e3e 9b5e e83e
00000020: ac06 9b3e 7624 a03e ce7e 093f 1287 e83e
00000030: c606 af3e 5114 933e 1957 a83e c160 2a3f

fc.weight f4 [120, 400]
-0.0022832304 0.013498877 0.027801178 -0.00069792644 -0.03661765 -0.011734926 -0.014038643 -0.027567405
-0.0113336835 0.005063142 -0.0038225276 0.0045997114 -0.010702939 0.00091409904 -0.039219808 0.023012936
-0.03823401 0.044990305 -0.031116175 0.021567795 0.04153571 0.050434697 0.050761145 0.048492696
-0.0031112914 -0.023209464 -0.0046659745 -0.019199692 0.013996991 0.0358711 -0.039130908 -0.023887806
-0.019223953 -0.035076335 -0.03503634 -0.044256978 0.04317849 0.041089233 0.0301426 0.042770438
-0.0068412684 0.045848824 0.028621836 -0.049650367 -0.012028472 0.045532353 0.001218639 -0.014196853
-0.03931956 -0.015845915 -0.047735333 -0.0076608933 0.045523018 0.032757062 0.0151948165 0.025925012
0.041017484 0.040801853 -0.041014913 -0.03467659 0.021875486 -0.03715929 0.022662748 0.033928007
0.015581978 0.043124955 0.0011356086 0.052613925 0.044304557 0.0045536747 -0.013783195 0.045075364
0.018490823 -0.00047950432 0.0047216336 0.032748606 -0.01031529 0.03143769 -0.009800851 -0.009164721
-0.007427249 0.022727206 0.020006822 -0.009525899 -0.009233417 0.028457316 -0.036879797 -0.040272288
0.03905092 -0.0116273025 0.039371014 0.016626803 0.009032584 0.025329698 0.048236825 0.033967786
0.024848389 -0.03847893 0.037126828 0.050433043 0.02265803 0.014261318 -0.005372309 -0.020602243
-0.0048000924 -0.027958311 0.03993332 0.020434977 -0.03048851 0.021634925 -0.027234148 -0.0014367976
-0.025824806 0.010523601 -0.0036386948 0.0028693057 0.0055728313 -0.035430703 0.0137604885 -0.02374551
0.046666645 0.052646432 -0.016975963 0.039093763 -0.028407156 -0.02252309 0.0021499938 0.032729026
0.029406736 -0.028760776 -0.018889362 -0.022360254 -0.039580707 -0.017243937 -0.00636366 0.045615554
-0.028082713 0.00665705 -0.005932561 0.01199898 0.005741429 -0.022727624 0.025578145 0.04186649
-0.0099250935 0.012556973 -0.016868567 -0.028943617 -0.04406288 -0.045059796 0.007945387 0.05437309
0.022546709 0.011077175 0.020647038 -0.040663444 0.013455966 0.044430647 0.0074379765 -0.029967621
-0.023509357 -0.03622139 -0.009691407 -0.0009831947 -0.017252516 0.013871668 -0.009699634 -0.011222294
0.017762661 0.010197614 0.013678739 0.034986027 0.012299354 0.037118312 0.034643877 -0.036490496
0.019744573 -0.0012785787 0.036717404 -0.026716758 0.035322517 0.006894457 -0.023829978 -0.028828517
-0.003952931 0.020286808 0.04063067 0.031404145 0.038851134 -0.035074625 -0.03772961 0.012924815
0.02227682 0.026673159 0.013210084 -0.041320056 0.013073992 -0.0017068529 -0.037119765 0.051280037
-0.042885136 -0.015232003 -0.00026439008 -0.020700393 -0.022586634 0.023131298 0.008116526 -0.049803723
-0.030431971 0.03210694 0.043713555 -0.01069971 -0.04462259 -0.035893366 0.04667252 0.029571965
0.00057904935 -0.038138743 0.010565285 0.050596796 0.0074183987 0.008313154 0.021083843 -0.046191826
-0.01658105 -0.0045922734 -0.030513195 -0.031229101 -0.027306693 0.032141358 0.0061718333 0.022802394
-0.010678448 -0.024057988 0.03280159 0.015755523 0.00947519 0.044465728 0.014347854 -0.04211477
-0.036989413 0.006925887 0.034099694 0.0012892357 -0.02973272 0.0010517971 -0.027351996 0.029199295
-0.027256463 -0.042451855 0.015983962 -0.03890677 0.041141223 0.013967353 0.026189854 -0.016739566
00000000: 40a2 15bb 652a 5d3c 4cbf e33c 0df5 36ba
00000010: 64fc 15bd d943 40bc 5602 66bc 0ad5 e1bc
00000020: eab0 39bc b7e8 a53b 5f83 7abb 2db9 963b
00000030: 615b 2fbc 26a0 6f3a f3a4 20bd a085 bc3c
00000040: 449b 1cbd c147 383d 59e7 febc f2ae b03c
00000050: 5921 2a3d 9d94 4e3d ebea 4f3d 47a0 463d
00000060: cfe6 4bbb c621 bebc 08e5 98bb ac48 9dbc
00000070: a353 653c 93ed 123d bb47 20bd 5cb0 c3bc
00000080: 8d7b 9dbc 34ac 0fbd 4482 0fbd ce46 35bd
00000090: eedb 303d 2f4d 283d 9ded f63c 0e30 2f3d
000000a0: b82c e0bb facb 3b3d 5778 ea3c 2f5e 4bbd
000000b0: 1113 45bc 2280 3a3d bdba 9f3a eb99 68bc
000000c0: 8c0d 21bd 4bcf 81bc 2086 43bd 3b08 fbbb
000000d0: 5876 3a3d 452c 063d aef3 783c b160 d43c
000000e0: f301 283d d81f 273d 41ff 27bd 0a09 0ebd
000000f0: 3834 b33c 5734 18bd 3aa7 b93c 18f8 0a3d
00000100: 8d4b 7f3c cba3 303d b4d8 943a b381 573d
00000110: b278 353d fe36 953b e9d2 61bc f2a0 383d
00000120: 117a 973c fb65 fbb9 efb7 9a3b 6723 063d
00000130: 7601 29bc cfc4 003d c093 20bc a027 16bc
00000140: 4860 f3bb 682e ba3c 59e5 a33c 8412 1cbc
00000150: c247 17bc 511f e93c 450f 17bd 8ef4 24bd
00000160: dcf3 1f3d 7180 3ebc 8043 213d ef34 883c
00000170: 67fd 133c 3a80 cf3c fa93 453d ce21 0b3d
00000180: d98e cb3c 159c 1dbd 4d12 183d e192 4e3d
00000190: 559d b93c 4ea8 693c 320a b0bb 09c6 a8bc
000001a0: 184a 9dbb d408 e5bc 1f91 233d 4167 a73c
000001b0: 0ac3 f9bc ba3b b13c 261a dfbc ed52 bcba
000001c0: 8b8e d3bc 2f6b 2c3c 2b77 6ebb f60a 3c3b
000001d0: 4c9c b63b c91f 11bd ac73 613c f285 c2bc
000001e0: 8625 3f3d c9a3 573d 2d11 8bbc c820 203d
000001f0: 20b6 e8bc 5882 b8bc e9e6 0c3b df0e 063d
00000200: 65e6 f03c b89b ebbc ddbd 9abc da2c b7bc
00000210: 611f 22bd 2843 8dbc 4086 d0bb 60d7 3a3d
00000220: b80d e6bc 6223 da3b ee65 c2bb 5f97 443c
00000230: 9922 bc3b 482f babc 4289 d13c 327c 2b3d
00000240: dc9c 22bc c3bb 4d3c f32f 8abc 2a1b edbc
00000250: 477b 34bd 9f90 38bd 5e2d 023c 51b6 5e3d
00000260: e0b3 b83c 0a7d 353c fa23 a93c b68e 26bd
00000270: 6976 5c3c e9fc 353d 45ba f33b a87e f5bc
00000280: b296 c0bc e15c 14bd b5c8 1ebc 8ade 80ba
00000290: 2655 8dbc fe45 633c 37eb 1ebc b6dd 37bc
000002a0: 0083 913c e513 273c ca1c 603c 824d 0f3d
000002b0: 3b83 493c 5f09 183d bde6 0d3d 0f77 15bd
000002c0: 5fbf a13c fb95 a7ba fd64 163d 1add dabc
000002d0: 58ae 103d e6ea e13b 1637 c3bc c829 ecbc
000002e0: 9787 81bb 8530 a63c 586c 263d a2a1 003d
000002f0: 5e22 1f3d 69aa 0fbd 5d8a 1abd 9ac2 533c
00000300: e17d b63c ab81 da3c 1c6f 583c 383f 29bd
00000310: 4c34 563c 7bb8 dfba e50a 18bd 040b 523d
00000320: 53a8 2fbd a78f 79bc d69d 8ab9 df93 a9bc
00000330: 9b07 b9bc d97d bd3c 2dfb 043c fdfe 4bbd
00000340: 784c f9bc 9182 033d fc0c 333d d64d 2fbc
00000350: 2dc6 36bd ec04 13bd af2b 3f3d e840 f23c
00000360: 58cb 173a 5f37 1cbd 041a 2d3c 963e 4f3d
00000370: 0a16 f33b e533 083c 06b8 ac3c a433 3dbd
00000380: fbd4 87bc c87a 96bb cff6 f9bc 2cd4 ffbc
00000390: 49b2 dfbc a8a6 033d 173d ca3b 16cc ba3c
000003a0: a8f4 2ebc 4215 c5bc f65a 063d ba11 813c
000003b0: d43d 1b3c b221 363d 4313 6b3c 8980 2cbd
000003c0: 3682 17bd 8df2 e23b 1fac 0b3d 92fb a83a
000003d0: 0992 f3bc 74dc 893a 4b11 e0bc 5c33 ef3c
000003e0: f248 dfbc ffe1 2dbd ccf0 823c b55c 1fbd
000003f0: b383 283d 53d7 643c 1b8c d63c 6a21 89bc

fc.bias f4 [120]
-0.026004454 0.024988186 0.02017251 0.044371214 -0.042618018 -0.038551956 0.034802303 -0.054156855
0.0045209685 -0.032062996 -0.03280683 -0.01216067 0.016005099 -0.029213602 0.04639633 0.0019405114
-0.0016603945 0.010571151 -0.029794492 0.026186313 0.026485732 -0.020362718 0.051888708 0.025706355
0.022439973 0.031556804 -0.016612977 0.02097196 0.015593114 -0.02160585 0.05233355 0.038753387
0.012458778 -0.013786175 -5.8734528e-05 -0.009253488 -0.045148384 0.005942405 -0.0064901174 -0.040954955
0.0095181335 -0.013301213 -0.049620222 -0.049196284 -0.05236061 0.03709182 0.0030331549 -0.022260401
0.0007041843 0.0014229326 -0.017984208 -0.012265337 -0.048134252 -0.0243042 0.004452523 0.010643899
0.010230221 -0.052212194 0.021649223 -0.05023734 -0.0003362776 0.002339914 -0.0033126706 0.0005852146
-0.03353992 0.007960778 0.0046905633 0.03957144 0.008843768 0.007984589 0.010239921 0.0371689
-0.009202324 0.055533476 0.022083234 -0.021912433 0.031250622 0.020022178 0.010720347 0.016463585
-0.014047208 -0.007709716 0.004708906 0.04043304 -0.0042890483 0.0050859144 -0.04054797 0.013194671
-0.0057132947 0.03975454 0.0064651393 -0.042893115 -0.0369734 -0.019401554 -0.015682507 0.012590088
-0.0029694708 0.0305487 -0.036919914 -0.046523344 -0.024186619 -0.03887274 0.001896653 -0.021783825
0.026284413 0.050487075 -0.034449667 0.033951454 0.04963633 -0.03807883 -0.045937035 0.036070865
-0.016416227 0.011913529 0.049944445 0.0010262333 0.04468364 -0.04492973 0.023997176 -0.04230228
00000000: 4b07 d5bc 06b4 cc3c d240 a53c 97be 353d
00000010: 3b90 2ebd a8e8 1dbd dc8c 0e3d 94d3 5dbd
00000020: a224 943b 7d54 03bd 7460 06bd 8c3d 47bc
00000030: 201d 833c 5d51 efbc 140a 3e3d c258 fe3a
00000040: 98a1 d9ba 9f32 2d3c 9413 f4bc ae84 d63c
00000050: 9bf8 d83c b7cf a6bc 4189 543d 2296 d23c
00000060: 09d4 b73c b541 013d f017 88bc 63cd ab3c
00000070: 437a 7f3c c0fe b0bc b45b 563d dfbb 1e3d
00000080: e71f 4c3c 69df 61bc b859 76b8 f19b 17bc
00000090: 83ed 38bd 82b8 c23b 0dab d4bb 62c0 27bd
000000a0: f2f1 1b3c 55ed 59bc 933e 4bbd 0b82 49bd
000000b0: 1478 56bd 98ed 173d e5c7 463b 725b b6bc
000000c0: 0299 383a b281 ba3a 9e53 93bc 8df4 48bc
000000d0: 6c28 45bd 9a19 c7bc 78e6 913b c063 2e3c
000000e0: a89c 273c 74dc 55bd b659 b13c abc5 4dbd
000000f0: 6a4e b0b9 3e59 193b 6419 59bb 1669 193a
00000100: 2861 09bd ec6d 023c 4cb3 993b aa15 223d
00000110: 74e5 103c cbd1 023c 57c5 273c 6b3e 183d
00000120: 58c5 16bc 1277 633d e6e7 b43c b481 b3bc
00000130: a700 003d 8d05 a43c 65a4 2f3c a4de 863c
00000140: 4326 66bc c9a1 fcbb 2b4d 9a3b 1e9d 253d
00000150: 258b 8cbb bea7 a63b a115 26bd 762e 583c
00000160: 9736 bbbb a8d5 223d 85d9 d33b b1b0 2fbd
00000170: 6b71 17bd 02f0 9ebc 9a78 80bc a846 4e3c
00000180: 749b 42bb 4441 fa3c 5639 17bd 438f 3ebd
00000190: 0423 c6bc 0639 1fbd 1d99 f83a fe73 b2bc
000001a0: 6952 d73c 89cb 4e3d 181b 0dbd ae10 0b3d
000001b0: 774f 4b3d 8cf8 1bbd 7928 3cbd 0bbf 133d
000001c0: 537b 86bc f630 433c 8c92 4c3d ad82 863a
000001d0: 3106 373d 3d08 38bd ba95 c43c 2845 2dbd

fc1.weight f4 [84, 120]
0.010095815 0.072191976 0.0069888644 -0.00094927003 0.08437086 0.012864612 -0.07558352 0.07820206
-0.045773357 -0.06940531 0.08862724 -0.0072741667 -0.010340013 0.074685834 0.04606964 -0.0392011
-0.01911605 0.0074253245 0.07955527 -0.024942793 0.01028234 -0.07819489 -0.02776521 0.044346943
0.010283977 -0.083179034 -0.0243367 0.061607223 -0.042042665 -0.074354604 0.072093114 0.056215182
-0.029652474 0.044619698 0.026091851 -0.017699698 0.046201825 0.059191324 -4.9777824e-05 -0.03667826
-0.0023840745 0.017977651 0.028159222 -0.0032280174 -0.06887126 0.0153970895 0.0920953 0.06269791
0.05871726 -0.07928413 0.058627672 -0.03645754 0.08351195 -0.023083493 -0.0256298 -0.043181825
0.013336674 0.08833802 0.01815777 0.020803751 -0.008691153 -0.007266697 -0.009725454 -0.038738366
-0.047080748 0.051045857 -0.06932898 0.08935376 0.046139363 0.056952998 0.045952737 -0.025668152
-0.018524991 0.021384703 -0.028555725 -0.038111854 0.0832681 -0.0048563653 -0.017316788 -0.057806876
-0.04379889 0.09233595 0.07256662 0.029975649 -0.01576476 -0.04706384 0.031322468 -0.011009458
0.023757584 -0.041299667 0.035929818 -0.07834424 0.051038098 -0.02260333 0.025666198 -0.04599015
-0.07226395 -0.00842998 0.07379788 0.049524415 0.033629045 0.03578302 0.037491042 0.052674353
-0.07871298 0.07993971 -0.090603076 -0.011499732 0.04579093 0.081020415 -0.09496079 -0.018135274
0.030343434 -0.07922495 -0.025689356 -0.03753268 -0.018889423 0.08781866 -0.022774769 0.0045326496
-0.05549516 0.067247815 0.033255354 0.058116175 0.076264724 0.06022932 0.055287447 0.058851417
0.014835015 -0.009611102 -0.03576431 -0.06724384 -0.02777852 0.025048226 -0.06649051 -0.03792742
-0.036557406 -0.08222071 0.06639874 -0.039212517 0.035478164 0.030138383 0.0634495 -0.066169165
-0.04611953 0.069029346 0.07412923 0.091568775 -0.08407698 0.02985197 0.011226765 -0.07532484
-0.06159443 -0.086765416 0.07243663 0.06918008 0.08733645 0.029660216 0.06736551 0.06815469
0.051007044 -0.027892973 0.0300872 -0.041816227 0.023989663 0.03355684 0.022837272 -0.027631726
-0.07095093 -0.01103038 0.028148538 0.020719243 0.027820455 -0.054696623 -0.008908075 -0.014734733
-0.010862203 -0.057288066 0.028034328 -0.03727794 0.016829649 0.05784417 -0.0075698174 -0.09127159
0.03285599 0.07325641 0.047879625 0.05592626 -0.0024278332 -0.027187947 -0.073087454 0.052773215
0.08288505 0.08083609 0.020104287 -0.012503992 -0.010394377 -0.060034662 -0.05917041 0.073586114
-0.04045047 0.027811117 0.008768194 0.011011625 -0.043058943 -0.05741944 -0.015206036 0.044777602
-0.077360995 -0.086781055 0.03186781 -0.038916536 -0.020331929 0.04206138 -0.0048336796 -0.07077506
0.09273925 0.04220153 0.08095782 0.07079592 0.0405293 -0.07083136 0.05826906 0.012450229
0.07217981 -0.056438707 0.031842995 -0.05253982 0.07595449 -0.008049794 -0.060443014 -0.07412707
-0.030796457 -0.03456909 0.037596427 0.048503354 -0.04668257 0.035209496 -0.07291861 0.079844736
-0.04561379 0.012861523 0.09141461 -0.04427727 0.029935963 0.04897049 -0.08616793 0.09574732
0.0070655653 0.0069705476 0.0637932 0.0036707853 -0.026965855 0.053671487 -0.013621446 -0.05201935
00000000: eb68 253c 63d9 933d d802 e53b 6fd8 78ba
00000010: a1ca ac3d 18c6 523c 88cb 9abd 6728 a03d
00000020: d87c 3bbd 5f24 8ebd 3382 b53d 225c eebb
00000030: 2869 29bc e3f4 983d 85b3 3c3d 5591 20bd
00000040: 4399 9cbc 2350 f33b e0ed a23d d454 ccbc
00000050: 4377 283c a424 a0bd de73 e3bc 24a5 353d
00000060: 207e 283c c559 aabd c25d c7bc db57 7c3d
00000070: ee34 2cbd 3a47 98bd 8ea5 933d e441 663d
00000080: bfe9 f2bc 25c3 363d 94be d53c f5fe 90bc
00000090: 203e 3d3d 9a72 723d 88c8 50b8 f13b 16bd
000000a0: 223e 1cbb de45 933c 2bae e63c 258d 53bb
000000b0: 600c 8dbd 1344 7c3c 769c bc3d c367 803d
000000c0: 8281 703d b85f a2bd 9223 703d 8054 15bd
000000d0: 5008 ab3d 9819 bdbc 96f5 d1bc 6ddf 30bd
000000e0: 1182 5a3c 90ea b43d 9bbf 943c a16c aa3c
000000f0: 5665 0ebc 791d eebb 8357 1fbc 1fac 1ebd
00000100: bed7 40bd 7615 513d 5afc 8dbd 1bff b63d
00000110: a1fc 3c3d 8c47 693d f038 3c3d 0446 d2bc
00000120: b9c1 97bc f92e af3c b2ed e9bc 2d1b 1cbd
00000130: 7788 aa3d 2522 9fbb f0db 8dbc e7c6 6cbd
00000140: 7766 33bd a11a bd3d cf9d 943d 7e8f f53c
00000150: 1925 81bc 03c6 40bd fd4b 003d 0461 34bc
00000160: 449f c23c d729 29bd 252b 133d f272 a0bd
00000170: 530d 513d 9e2a b9bc eb41 d23c 2b60 3cbd
00000180: 1fff 93bd e61d 0abc 5823 973d 1dda 4a3d
00000190: 9cbe 093d 3791 123d 3590 193d 10c1 573d
000001a0: 4534 a1bd 6eb7 a33d 1b8e b9bd 5f69 3cbc
000001b0: 458f 3b3d 08ee a53d cd7a c2bd 6d90 94bc
000001c0: cb92 f83c b140 a2bd 7c72 d2bc debb 19bd
000001d0: febd 9abc 45da b33d 2792 babc 9f86 943b
000001e0: e54e 63bd 39b9 893d c436 083d 3a0b 6e3d
000001f0: ae30 9c3d 05b3 763d 1775 623d 2f0e 713d
00000200: 900e 733c e277 1dbc 997d 12bd 23b7 89bd
00000210: c78f e3bc f031 cd3c 2d2c 88bd c859 1bbd
00000220: 38bd 15bd 5563 a8bd 10fc 873d 4e9d 20bd
00000230: 8d51 113d c5e4 f63c d0f1 813d b383 87bd
00000240: d5e7 3cbd 425f 8d3d 11d1 973d 6988 bb3d
00000250: 8d30 acbd 1e8c f43c 77f0 373c e943 9abd
00000260: 714a 7cbd 11b2 b1bd a859 943d 49ae 8d3d
00000270: 74dd b23d fbf9 f23c eef6 893d b094 8b3d
00000280: c3ec 503d ce7f e4bc 6f79 f63c 7e47 2bbd
00000290: f885 c43c e672 093d 3b15 bb3c ee5b e2bc
000002a0: b94e 91bd c4b8 34bc c397 e63c 67bb a93c
000002b0: b9e7 e33c 9109 60bd 2df3 11bc f369 71bc
000002c0: 62f7 31bc e4a6 6abd 3fa8 e53c c1b0 18bd
000002d0: 55de 893c 02ee 6c3d 3b0c f8bb 99ec babd
000002e0: 0194 063d 7507 963d 6d1d 443d ef12 653d
000002f0: 481c 1fbb 42b9 debc e0ae 95bd ba28 583d
00000300: a3bf a93d 648d a53d bfb1 a43c 8bdd 4cbc
00000310: 2d4d 2abc e8e6 75bd ac5c 72bd 51b4 963d
00000320: 64af 25bd 24d4 e33c 79a8 0f3c 1a6a 343c
00000330: 935e 30bd a630 6bbd bd22 79bc b868 373d
00000340: 716f 9ebd 44ba b1bd d287 023d f266 1fbd
00000350: 258f a6bc 8e48 2c3d d863 9ebb 84f2 90bd
00000360: 13ee bd3d 83db 2c3d 37cd a53d 74fd 903d
00000370: 0d02 263d 0810 91bd 8aab 6e3d 0cfc 4b3c
00000380: 02d3 933d 462c 67bd cd6d 023d ff33 57bd
00000390: 078e 9b3d 48e3 03bc 1893 77bd efcf 97bd
000003a0: da48 fcbc 5198 0dbd b6fe 193d 74ab 463d
000003b0: 3936 3fbd d537 103d 5a56 95bd a385 a33d
000003c0: 87d5 3abd 23b9 523c 9537 bb3d 155c 35bd
000003d0: 443c f53c 4895 483d d078 b0bd 2c17 c43d
000003e0: 4286 e73b 3169 e43b 02a6 823d 8f91 703b
000003f0: 7fe7 dcbc a2d6 5b3d 7c2c 5fbc 3e12 55bd

fc1.bias f4 [84]
-0.080532685 0.06371751 0.060027074 -0.07887134 0.02127156 -0.029904405 0.07559987 -0.004412145
-0.040636957 -0.02398693 -0.08481919 0.0016860233 0.059661444 0.015113704 -0.078278825 -0.01158786
-0.07246366 -0.071055435 -0.068176545 0.039114397 -0.021768024 -0.029258575 0.06512486 -0.013692871
-0.022770422 -0.047858812 -0.06598529 0.06673698 0.056660958 -0.027571015 0.012048822 0.089504085
-0.056434464 -0.03478458 -0.050809205 -0.081493214 0.0015342142 -0.0645692 0.071966626 -0.057981223
-0.00869558 -0.060004707 -0.05127483 -0.082732745 -0.022953404 0.05759322 -0.0929719 -0.035619445
-0.0770588 0.0006160598 0.0040849894 0.0018332079 0.05837664 -0.021627247 0.08527024 0.036241923
0.081272654 -0.055679094 -0.0038272701 -0.004926724 -0.049191058 0.075827606 -0.062422004 0.02910086
0.0025775898 0.02454184 0.0834145 -0.055054072 0.062200487 -0.004253935 -0.07572102 -0.009105188
-0.020136537 -0.024452915 0.011824966 0.050346594 -0.08770825 0.0011861171 -0.04382487 0.067187704
0.034044478 0.087966695 0.06703889 -0.017372746
00000000: 52ee a4bd 537e 823d f3de 753d 4c87 a1bd
00000010: b241 ae3c 15fa f4bc 1bd4 9a3d c193 90bb
00000020: f072 26bd 3d80 c4bc afb5 adbd 8efd dc3a
00000030: 8f5f 743d 789f 773c a650 a0bd 02db 3dbc
00000040: d467 94bd 8385 91bd 25a0 8bbd 6b36 203d
00000050: db52 b2bc aeaf efbc 2f60 853d 1058 60bc
00000060: 0989 babc 9a07 44bd 4c23 87bd 66ad 883d
00000070: 5215 683d 9cdc e1bc 6c68 453c eb4d b73d
00000080: d327 67bd 477a 0ebd 501d 50bd eae5 a6bd
00000090: b017 c93a db3c 84bd 3d63 933d b87d 6dbd
000000a0: e877 0ebc 7fc7 75bd 8e05 52bd c96f a9bd
000000b0: c708 bcbc dee6 6b3d 0d68 bebd b2e5 11bd
000000c0: 01d1 9dbd 137f 213a 60db 853b 4048 f03a
000000d0: 581c 6f3d a02b b1bc 2aa2 ae3d 6972 143d
000000e0: 4772 a63d c30f 64bd f0d2 7abb 5b70 a1bb
000000f0: 907c 49bd 814b 9b3d 37ae 7fbd ed64 ee3c
00000100: c8ec 283b f80b c93c 39d5 aa3d 6180 61bd
00000110: f0c5 7e3d 9864 8bbb 9f13 9bbd ed2d 15bc
00000120: 61f5 a4bc 7b51 c8bc 81bd 413c 3b38 4e3d
00000130: 62a0 b3bd 7c77 9b3a b581 33bd b599 893d
00000140: 3972 0b3d e227 b43d b04b 893d 4a51 8ebc

fc2.weight f4 [2, 84]
-0.0649636 0.035605006 0.083586305 0.032527123 -0.111763865 0.06075077 0.030275207 0.069743946
-0.06425822 0.050445277 -0.10264565 0.03731649 -0.101831846 -0.09256873 0.0457161 -0.0095788315
0.038528096 -0.044873748 -0.08943911 0.02216573 0.05303776 -0.09108172 0.044279583 0.07827188
0.0672304 0.00093047787 -0.02032876 -0.060985323 -0.05883864 -0.04081963 0.037351932 -0.03463576
0.09137403 0.02259819 -0.023177955 0.07546331 0.09539979 -0.045813546 0.1031389 -0.009257097
0.074712165 0.08982842 0.09541795 -0.032679066 -0.08128661 0.02915029 0.015453456 -0.0042908937
-0.08768075 -0.00845216 0.07564531 -0.037743546 0.07945234 0.069455594 0.043246396 -0.062007807
0.023096837 -0.03560615 -0.0051822057 -0.1099221 0.055300407 0.019932864 0.08794107 0.0008026954
0.032852177 -0.0030380215 0.05025376 0.06420167 -0.105303265 0.039530106 0.041585114 -0.00894076
0.029415 -0.002044679 0.057001803 -0.018698167 0.1040029 0.067259744 0.08772682 -0.006868336
-0.09532912 0.06474694 0.012899432 -0.042053945 0.082105115 -0.025568878 0.07358542 0.071579605
0.058521345 0.046307728 -0.07031989 0.038802817 0.05830722 0.10413778 -0.01654508 0.050022542
0.052336432 0.051895447 -0.0056944904 0.0524121 -0.07835566 0.047624532 -0.0534843 -0.07604531
0.08065525 -0.020709677 0.0024119315 0.039667103 0.05883365 0.044055816 0.08053114 0.089629255
-0.11016394 0.09612416 0.0326722 0.019803667 0.057529554 -0.09498344 -0.03315884 -0.08409304
0.045491666 -0.045262877 -0.029388756 0.067200504 0.10601736 0.07703282 -0.05331386 0.085390486
-0.10162492 -0.055815566 0.0926253 -0.10364618 -0.10513819 0.10761141 -0.049087282 0.019520082
-0.013672385 0.059150226 -0.09389856 0.052905668 -0.04560187 0.047455907 0.038014304 -0.08420987
-0.04234821 0.029637652 0.09739617 -0.095986135 -0.10495044 -0.04731597 0.09585956 -0.094546445
0.071083896 -0.0010789589 -0.06260587 -0.076283045 -0.03332835 -0.062304236 -0.09718755 -0.07793218
-0.056565173 0.056984447 -0.08155765 -0.08446131 -0.11087474 -0.008118585 -0.072837934 -0.0029786802
00000000: a30b 85bd 8ed6 113d 4c2f ab3d 293b 053d
00000010: 74e4 e4bd cdd5 783d b603 f83c ead5 8e3d
00000020: d099 83bd b59f 4e3d e237 d2bd 2dd9 183d
00000030: 378d d0bd ad94 bdbd ce40 3b3d 88f0 1cbc
00000040: a3cf 1d3d 89cd 37bd da2b b7bd e894 b53c
00000050: 1f3e 593d 0e89 babd 825e 353d 024d a03d
00000060: 18b0 893d 50eb 733a 8088 a6bc bfcb 79bd
00000070: c900 71bd 7c32 27bd 57fe 183d 3ade 0dbd
00000080: 4f22 bb3d d71f b93c b2df bdbc 828c 9a3d
00000090: f760 c33d fca6 3bbd 7d3a d33d 14ab 17bc
000000a0: b102 993d f6f7 b73d 7c6a c33d 7cda 05bd
000000b0: 9879 a6bd 97cc ee3c 7e30 7d3c a09a 8cbb
000000c0: f791 b3bd ee7a 0abc eeeb 9a3d fa98 1abd
000000d0: e9b7 a23d bc3e 8e3d 2223 313d e6fb 7dbd
000000e0: 9435 bd3c c1d7 11bd 7ecf a9bb d71e e1bd
000000f0: ae82 623d 3f4a a33c 731a b43d fa6b 523a
00000100: 0190 063d 8b19 47bb e3d6 4d3d 2a7c 833d
00000110: 3da9 d7bd 52ea 213d 2755 2a3d 447c 12bc
00000120: baf7 f03c 0500 06bb b97a 693d e62c 99bc
00000130: 79ff d43d 7abf 893d 1eaa b33d c70f e1bb
00000140: ea3b c3bd 0b9a 843d 2458 533c c240 2cbd
00000150: ba26 a83d d375 d1bc f4b3 963d 5498 923d
00000160: 14b4 6f3d 2cad 3d3d e003 90bd b4ef 1e3d
00000170: 8dd3 6e3d 3046 d53d 8c89 87bc 70e4 4c3d
00000180: ba5e 563d 5290 543d d998 babb 12ae 563d
00000190: ef78 a0bd f111 433d 5a12 5bbd a5bd 9bbd
000001a0: 942e a53d 57a7 a9bc 7f11 1e3b f979 223d
000001b0: 8efb 703d df73 343d 83ed a43d 8b8f b73d
000001c0: a29d e1bd bedc c43d 49d3 053d 4d3b a23c
000001d0: 1ca4 6b3d ae86 c2bd 90d1 07bd f938 acbd
000001e0: 7855 3a3d 9165 39bd b0c0 f0bc 6ba0 893d
000001f0: a11f d93d 62c3 9d3d a25f 5abd 35e1 ae3d
00000200: ba20 d0bd dd9e 64bd 55b2 bd3d 7344 d4bd
00000210: b152 d7bd 5f63 dc3d bf0f 49bd 94e8 9f3c
00000220: 2402 60bc 8247 723d e34d c0bd 9db3 583d
00000230: 07c9 3abd 2061 423d e3b4 1b3d 3976 acbd
00000240: 5175 2dbd a9ca f23c a577 c73d 6194 c4bd
00000250: 42f0 d6bd 64ce 41bd 0452 c43d 91a1 c1bd
00000260: 6f94 913d da6b 8dba 8237 80bd 493a 9cbd
00000270: 4f83 08bd ba32 7fbd 440a c7bd e89a 9fbd
00000280: e2b0 67bd 8668 693d b207 a7bd 0dfa acbd
00000290: 4c12 e3bd d003 05bc 0e2c 95bd f635 43bb

fc2.bias f4 [2]
-0.017928725 0.06318077
00000000: 43df 92bc eb64 813d
