model_lenet_5.pt (torch, 250922 bytes, 18 tensors)

layer1.0.weight f4 [6, 1, 5, 5]
000000 69 a4 e1 bd 16 b7 d2 bd c2 85 f0 3d cc 64 2d be
       -0.11017687 -0.10288827 0.11744262 -0.16932982
000010 02 89 01 3e ad be d4 3c a1 a9 21 3e b2 dd 26 3e
       0.1264992 0.025969828 0.15787365 0.16295508
000020 f2 d4 ea bd 0b 10 da bd 1e 2e 61 3e fd 1b 47 3e
       -0.11466397 -0.10647591 0.21990249 0.1944427
000030 72 6d 7a be 56 eb 91 bb 4e a9 5d 3e 8f f8 21 be
       -0.24455813 -0.004453103 0.21646616 -0.15817474
000040 a7 3b 3b be b1 0c a2 3d 25 68 4e bd 0e 8f d7 bd
       -0.18284474 0.07912577 -0.05039229 -0.105253324
000050 77 68 34 3d b6 2f 36 be 4f 70 28 bd e4 f0 2a 3e
       0.044044938 -0.17791638 -0.04112273 0.16693455
000060 64 02 35 be bf 0a d3 bd 74 6b c4 3d 05 fd 54 3d
       -0.17676693 -0.10304784 0.095908076 0.05199911
000070 85 b0 35 bd 36 20 29 bd 20 1a a4 bb 89 d5 32 3e
       -0.044357795 -0.041290484 -0.005007997 0.1746427
000080 b5 ea e2 bd 02 ec 28 3d 50 34 1b 3e 59 e0 e3 bc
       -0.11079923 0.0412407 0.15156674 -0.027816938
000090 4d e2 88 3d 1e 34 62 3d 55 08 84 3d 37 73 7e 3e
       0.066837884 0.055225484 0.06446902 0.24848638
0000a0 34 28 27 bd 92 d9 52 3e dd a5 1a be b1 a8 08 be
       -0.040809825 0.20590809 -0.15102334 -0.133456
0000b0 b0 d8 2f 3b d9 a6 c9 3d 92 0e ac 3d b4 4e 6e 3d
       0.0026832037 0.09846277 0.084012166 0.058180526
0000c0 69 80 54 be 24 0c 98 bc 5b c6 a8 3d a8 c0 a0 bd
       -0.2075211 -0.018560477 0.08240958 -0.07849246
0000d0 00 13 1c be ec 34 e9 3d 6e 84 11 be 6e e6 42 3e
       -0.15241623 0.11387047 -0.14210674 0.19033214
0000e0 17 55 01 3e 82 2d f3 bb 13 1b 09 bd cc 09 93 3d
       0.12630115 -0.0074211964 -0.033473086 0.07179603
0000f0 32 dd 8e 3c 6f e2 94 bd 8e fd 4a be f8 62 b9 bc
       0.017439459 -0.07269751 -0.19823286 -0.0226302
000100 ca b7 1f be 71 64 90 3e 03 cd 4d 3e b0 07 a6 bd
       -0.15597454 0.2820163 0.20097737 -0.08106935
000110 f9 47 37 3e 99 a3 d8 bc 63 ff 2f 3e ed 3e 07 be
       0.17898549 -0.026445197 0.17187266 -0.13207598
000120 ae 41 19 be 69 55 08 3e 50 8c da 3c b7 f7 2c 3e
       -0.14966461 0.13313831 0.026678234 0.1689137
000130 68 c3 29 3e 4c 30 36 3e db 0b 14 be ee c6 6e be
       0.16578448 0.17791861 -0.14457648 -0.23318073
000140 11 b5 16 3e a5 6c 66 bc a6 e1 e9 bd f4 ab 4c bb
       0.14717509 -0.014063989 -0.11419992 -0.0031230422
000150 76 f8 8d 3d ef 38 cb 3c 67 41 35 3e e7 9a 7d be
       0.06932156 0.024807421 0.1770073 -0.24766122
000160 a0 74 93 3d ff 3c b8 bd b3 c7 e1 3d 31 5e e7 bd
       0.07199979 -0.08996009 0.11024418 -0.112972625
000170 ef 66 1f 3e 4b 4a 21 be fb eb b5 bd c7 ed 8d bd
       0.1556661 -0.15750997 -0.088829 -0.06930118
000180 59 14 52 3d aa b3 72 3d ef cc 04 3e ed 0d 3b be
       0.051288936 0.059253372 0.12968801 -0.18267031
000190 c5 60 1e be 66 70 cd bd 01 7e 97 bd 74 87 e0 3d
       -0.15466602 -0.10031204 -0.0739708 0.10963336
0001a0 50 93 11 be 46 13 61 3e 30 c3 fb bc 49 24 31 be
       -0.14216352 0.21980008 -0.030732721 -0.17298998
0001b0 75 bd b7 bd 16 93 20 3c ec 39 4a 3e a3 27 9b 3d
       -0.08971683 0.009800693 0.19748658 0.075759195
0001c0 a7 e7 12 3a 5f 61 33 bd db 6f cd 3d f5 29 3e be
       0.0005603977 -0.043794032 0.100311 -0.18570693
0001d0 32 ca 92 3c d6 51 b0 3d 2d b3 ff 3d 72 a6 91 bd
       0.01791868 0.08609359 0.12485347 -0.07111825
0001e0 be 70 28 be 80 e1 08 bd 10 91 fc 3d f2 56 01 3e
       -0.16449258 -0.03341818 0.12332356 0.12630823
0001f0 11 38 28 bd a7 5a 52 be d6 2a 31 3d e3 54 46 3e
       -0.041069094 -0.20542394 0.043253742 0.19368319
000200 81 43 10 3c b1 c2 53 3e e2 d4 b4 bd 3f ed 0d be
       0.008805157 0.20679738 -0.08829667 -0.13860033
000210 60 d1 27 be f4 e0 55 3d 19 0d 3c be e6 f0 01 be
       -0.16388464 0.052216485 -0.18364371 -0.12689552
000220 36 55 98 bd 77 77 da bd 59 0f 37 3e 32 cc 5f bd
       -0.07438128 -0.10667317 0.17876948 -0.054638095
000230 2b a6 45 be 50 6d 2d be 64 43 58 3e f6 17 c1 3c
       -0.1930167 -0.1693623 0.21119457 0.023570996
000240 09 cb 11 3e d9 0f f6 3c 4e d4 36 3e 20 6b 1b 3e
       0.14237608 0.030036854 0.17854425 0.15177584
000250 35 49 40 3c a1 10 29 3e
       0.011736204 0.1651025

layer1.0.bias f4 [6]
000000 9d 29 6f 3e 9f 53 93 3d af e3 5d 3e cc c5 69 3e
       0.23355718 0.07193684 0.21668886 0.2282936
000010 dd cb 9f bc f2 d7 1e 3e
       -0.01950639 0.15512064

layer1.1.weight f4 [6]
000000 65 55 80 3f 47 67 76 3f 38 32 78 3f 24 92 7f 3f
       1.002606 0.9625134 0.9695163 0.9983237
000010 c9 1d 7f 3f fc 6f 89 3f
       0.99654824 1.07373

layer1.1.bias f4 [6]
000000 76 88 23 bd 2f ef 09 be d3 4e 0f 3d 85 51 44 be
       -0.03992506 -0.13470148 0.034987282 -0.19171722
000010 84 a5 99 bd 56 f8 c3 bd
       -0.07502273 -0.09568851

layer1.1.running_mean f4 [6]
000000 d2 3e 8c 3e 54 12 4d 3c 8d 1f 28 3e 25 30 6c 3e
       0.27391678 0.012516577 0.16418286 0.2306524
000010 19 7d 28 bc a8 54 16 3e
       -0.010283732 0.14680731

layer1.1.running_var f4 [6]
000000 06 07 aa 3c 16 4b 3a 3d 04 b7 44 3d cb f3 37 3d
       0.020755302 0.045481764 0.0480261 0.044910233
000010 aa b0 8b 3c 44 f0 7e 3d
       0.017052013 0.062240854

layer2.0.weight f4 [16, 6, 5, 5]
000000 a4 2d ee 3d ff 15 52 3e be a3 d1 3c 7f f9 50 bc
       0.11629799 0.20516203 0.025590774 -0.012754797
000010 86 39 cd bd 13 9c ad ba a5 09 0d 3e d8 d3 68 3d
       -0.10020737 -0.0013245366 0.1377321 0.056842655
000020 a6 03 ff 3b 64 32 32 3c eb b9 41 3d 4f c0 17 3d
       0.0077824173 0.010876272 0.047296446 0.037048634
000030 f7 a9 77 bd 93 4a a2 bd 30 02 36 3d 7d 47 4f bd
       -0.060464825 -0.0792438 0.04443568 -0.050605286
000040 03 b4 61 bd 6a 8a c2 3c 07 4f 63 3c a7 ab 97 3d
       -0.055103313 0.023747642 0.013873822 0.07405787
000050 4c 10 ed bb ca 34 91 bd c9 03 10 3e 8f b8 89 bc
       -0.0072346088 -0.07090147 0.14063944 -0.016811637
000060 5c f6 f3 bd b1 10 df bc 9d c0 fb bc 09 a4 85 bd
       -0.11912224 -0.027229639 -0.030731494 -0.06525428
000070 29 2e 2e 3d ee cb 2e bd ae 0c d8 bd 52 e0 a0 3d
       0.04252449 -0.04267495 -0.105492935 0.07855286
000080 af 79 e1 3d 93 d3 1a 3c fa 97 e4 3c b4 74 0a bd
       0.110095374 0.009449857 0.0279045 -0.033802703
000090 3c bf 14 bd 53 1d 8a 3d b1 49 34 3d 4f 4b 32 bd
       -0.036315188 0.067438744 0.04401559 -0.04352885
0000a0 d4 b1 83 bd f2 08 75 bd 60 b7 aa bc ae 25 82 3d
       -0.064304024 -0.059822984 -0.020839393 0.06354843
0000b0 47 e1 ee bd 3e db 37 3d e7 e6 91 3c e8 ee 02 3c
       -0.11664062 0.04488682 0.017810298 0.00799153
0000c0 83 f6 ac 3c c3 b1 0c bd 7a 34 93 3c 7c e5 c5 3d
       0.02111364 -0.034349214 0.017969359 0.09662911
0000d0 e9 13 2b 3d 03 03 3f bd a9 f5 cf b9 bf 32 26 3b
       0.041767035 -0.04663373 -0.00039665148 0.0025359837
0000e0 8f b2 0d bc 30 9f c4 3d 90 d7 3f bc 36 5c e0 bc
       -0.008648529 0.09600675 -0.011709109 -0.02738772
0000f0 b6 d5 92 3d 2a 35 2e bd a6 61 43 3d dd 80 78 3c
       0.071696684 -0.04253117 0.047700547 0.015167442
000100 bc 72 0d 3d 39 1f 0d bd 1b e3 63 bd 3b 10 03 3d
       0.034533247 -0.034453604 -0.055636507 0.0319979
000110 86 05 07 3e a2 be c2 bd 56 2b b0 3c d9 a7 81 bd
       0.13185701 -0.095090166 0.02150504 -0.063308425
000120 5f 93 cd 3c f2 38 cd bc 20 20 11 be 8f 2d 81 bc
       0.025094686 -0.025051568 -0.14172411 -0.015768794
000130 9c 32 e6 3d e6 d4 e3 bd 6f 51 b2 bb 8d 4b 01 be
       0.11240122 -0.111245915 -0.0054418365 -0.12626477
000140 7d 9e 5e bd 1d 51 a1 3d d7 2c 78 bc 54 42 f0 3c
       -0.054350365 0.07876799 -0.015147409 0.029328503
000150 47 8f a1 3d 03 43 72 bd a1 e4 03 bd 8e 3c 76 3d
       0.07888656 -0.05914594 -0.03220046 0.060116343
000160 02 03 af bd 46 e8 8d 3d 5d f1 71 bd b1 b2 4e bd
       -0.085454956 0.06929068 -0.059068073 -0.050463382
000170 e6 58 c4 3d 3c 77 b2 bd b1 4d 9e bd bb 5c 70 3c
       0.095872685 -0.087141484 -0.07729662 0.014670546
000180 8b 43 0d be b3 b6 b6 3d a2 6a 8f bc 50 fa d7 bd
       -0.13795297 0.08921566 -0.017506901 -0.1054579
000190 27 ae 25 be e9 ee 94 3d 65 83 d5 3c 59 db 7d bd
       -0.16179715 0.07272131 0.02606363 -0.061976764
0001a0 ec 57 a1 bd fd 16 e7 bd fa 07 0b 3e cf ce 34 bd
       -0.07878098 -0.112836815 0.13577262 -0.04414254
0001b0 3e 1a 79 3d 93 4e 67 3c e4 17 bc bd 55 38 c9 3d
       0.060816042 0.014117855 -0.09184244 0.098251976
0001c0 7b 6c 4d bd a0 aa ef bc d6 ca 8d bd e1 88 b7 bd
       -0.050152283 -0.029256165 -0.069234535 -0.089616545
0001d0 9f 65 b5 3d 8e 10 f8 bd 33 61 ba bd b1 bf ca bc
       0.08857273 -0.121125326 -0.091005705 -0.024749609
0001e0 62 a2 b7 3d a6 be 66 3d de a6 ab bb c7 e6 ef bc
       0.08966519 0.05633416 -0.005238398 -0.029284848
0001f0 82 af 05 3a b5 96 9a 3d 9c d8 09 be b7 52 07 3d
       0.00050997 0.07548276 -0.13461536 0.033037867
000200 25 f5 08 3d 1a d5 00 bc fd cf b7 3c bb 79 28 3d
       0.033436913 -0.007863307 0.022438044 0.041131716
000210 2e 64 0c bb 66 03 9d 3d db 9d 55 3d 15 93 1d bd
       -0.0021422016 0.07666664 0.052152496 -0.038470346
000220 57 7c 49 3d 27 eb 1a bc a0 23 84 bb f6 ea e2 bc
       0.049190845 -0.009455479 -0.004032567 -0.027699929
000230 e3 c1 6f 3d cc 9e de 3d 9a 70 08 be f4 20 a6 3d
       0.058534514 0.10870132 -0.13324204 0.08111754
000240 5a 66 3a 3e 4d 7f bb 3d 20 8f ed 3d dd 41 22 bd
       0.18203107 0.0915514 0.115995646 -0.039613593
000250 82 94 41 bc 1c 76 17 3e 31 c7 50 bb 7d da 94 bd
       -0.011815192 0.14791149 -0.0031857009 -0.07268236
000260 a9 cb 73 3d 47 71 c4 bc b4 7e 97 bb ef 56 82 bd
       0.059520397 -0.023979796 -0.0046232585 -0.063642375
000270 a8 87 28 bd 16 ba 97 3d b1 a7 3b 3d 12 32 ea bc
       -0.041144997 0.0740854 0.04581422 -0.028588329
000280 95 ea 35 bc 5a ab 3b bd 42 21 28 bd c8 c8 89 bd
       -0.011103292 -0.04581771 -0.041047342 -0.06727749
000290 3e dd 03 bc bd 69 c7 bc da c4 b3 3d ca 00 14 bc
       -0.008048354 -0.024342412 0.08777781 -0.009033391
0002a0 a7 8a 0d bd e4 80 63 3d 00 b7 39 bd 82 3a a6 3d
       -0.034556057 0.05554284 -0.045340538 0.08116628
0002b0 f6 21 d8 bd 20 af 26 bd 83 b5 be 3b 2e 8f 19 be
       -0.105533525 -0.040694356 0.0058199777 -0.14996025
0002c0 02 43 98 bd 34 4b 0a be 81 c8 96 3d d7 82 02 3d
       -0.07434656 -0.1350525 0.07362462 0.03186306
0002d0 7a c8 dc bd 76 4f c1 bd c1 7c b4 3c db 2a 06 3e
       -0.10780425 -0.09438984 0.022032144 0.13102286
0002e0 b0 c1 23 3d d4 b9 ed bc fc 82 db bc 91 20 f9 3d
       0.039979637 -0.029019274 -0.026795857 0.12164415
0002f0 da 14 e1 3d 78 e1 24 bd c1 e8 a5 3d 54 bc c7 3d
       0.10990305 -0.040254086 0.08101035 0.097527176
000300 4d f2 a6 bc 57 1e 33 3d be 38 33 3b e0 e0 c5 3d
       -0.02037921 0.043730106 0.0027347053 0.09662032
000310 37 19 17 3d e4 4f 0e 3d aa b4 77 3d fc e5 51 3d
       0.03688928 0.03474416 0.06047503 0.05124472
000320 df 9a d4 bd d4 c9 29 be 7a 5a 7e 3d 18 d8 b4 3d
       -0.10381102 -0.16580898 0.062098004 0.08830279
000330 a5 61 2c 3d c0 e9 3c 3d fa f3 bb bd d2 7e 87 bd
       0.04208531 0.04612136 -0.09177394 -0.06615986
000340 d0 ca 26 bd d1 bc 94 bd 68 2d 66 bd 05 df 0e bd
       -0.04072076 -0.07262576 -0.056195647 -0.034880657
000350 8a d9 88 3c c7 71 95 3d 65 43 72 3c 86 0d d1 3c
       0.016705293 0.07297092 0.014786576 0.025519144
000360 a0 13 c2 bd b6 a6 71 3d 1e b6 35 bc e0 d3 7c 3d
       -0.094763994 0.05899688 -0.011090783 0.061725497
000370 ac 49 05 bd c5 fc b0 3c 12 aa 98 3b cb 50 cc bc
       -0.032540962 0.021604905 0.004658946 -0.024940869
000380 4f e1 cb bd 47 eb b2 3d e9 55 d7 3d cd 2a c1 bc
       -0.099550836 0.08736282 0.10514433 -0.02357998
000390 00 04 36 bd d2 f1 33 3e 2c 3b 05 3d 72 74 8a 3c
       -0.04443741 0.17572716 0.032527134 0.016901229
0003a0 21 22 69 3c 56 13 ca 3d 80 96 08 3c d5 ea 87 3c
       0.014229328 0.09866969 0.008336663 0.016591469
0003b0 d5 ad 68 bd 8c b3 be 3d dc b6 7d bd 30 ab 45 3c
       -0.056806404 0.093115896 -0.061941966 0.01206474
0003c0 66 90 46 3d b8 ed b9 bc b4 a0 36 3d de cb c6 3c
       0.048477553 -0.022696361 0.044586852 0.024267133
0003d0 d8 d0 85 bb 2e b9 91 bd 80 c6 ee bc ce 0d 94 bd
       -0.004083734 -0.07115398 -0.029147387 -0.072291955
0003e0 bc 45 6f 3d 8d f8 b0 3c d7 b8 32 3c a0 cb 1c bc
       0.058416113 0.021602893 0.010908327 -0.009570032
0003f0 01 28 1c 3c cc e0 87 bc 9f a2 6f bd 68 17 b8 bd
       0.009531022 -0.016586684 -0.058504697 -0.089888394

layer2.0.bias f4 [16]
000000 61 c1 34 bd 10 ba c0 3d ec 16 52 3c 04 a2 1c bd
       -0.044129733 0.094104886 0.012822848 -0.038240448
000010 ca 6f 84 bc 61 a5 95 bd 59 2f 56 3b 8e 96 da 3d
       -0.016166586 -0.07306934 0.003268203 0.10673247
000020 ec 06 c9 bd 1a a0 86 bd 91 29 94 bd 6c 38 cc bb
       -0.09815773 -0.06573506 -0.07234491 -0.006232312
000030 af 6d b5 3c 42 87 27 bc 5f 11 45 bd af bc e5 3d
       0.022147028 -0.010225119 -0.04811227 0.11217629

layer2.1.weight f4 [16]
000000 fa 8b 8b 3f c7 c9 81 3f 4d 6b 8e 3f 6e a2 81 3f
       1.0902092 1.0139703 1.1126496 1.0127695
000010 0f d3 89 3f 16 d6 85 3f 4e 8a 80 3f d8 4d 81 3f
       1.0767535 1.0455959 1.0042207 1.0101881
000020 0e de 88 3f 38 ea 81 3f 89 03 8c 3f 8c aa 84 3f
       1.0692766 1.0149603 1.0938579 1.0364547
000030 7f f2 77 3f 19 29 87 3f 9e da 80 3f f6 c4 8a 3f
       0.96854395 1.0559417 1.0066717 1.0841358

layer2.1.bias f4 [16]
000000 23 8a 8f be 0b a2 dc bd 4d 9f f9 bd 5e c4 87 be
       -0.28035077 -0.10773095 -0.12188587 -0.26517004
000010 ce 9d 42 be 04 64 66 be 34 3a 94 bd fa 65 c0 bd
       -0.1900551 -0.2249909 -0.07237664 -0.093944505
000020 8c 45 74 be ad 54 ce bd ff 8a 2f be 35 e3 2f be
       -0.23854655 -0.100747444 -0.17142867 -0.17176516
000030 e1 3f 4e be 6d 1f 62 be 4a 99 c2 bd 81 ae 46 be
       -0.20141555 -0.220823 -0.09501894 -0.19402505

layer2.1.running_mean f4 [16]
000000 c5 67 64 3d 1f dc 9b 3e 96 4c 09 3e a9 55 02 bf
       0.055763025 0.30441377 0.13408121 -0.5091196
000010 c7 67 0e be 8a 9f 40 be 61 ff c9 3d ae 6f 03 bf
       -0.13906775 -0.1881086 0.09863163 -0.51342285
000020 2f d0 62 be a0 60 e7 be 8c cd 31 bf 2a e7 9d be
       -0.22149728 -0.45190907 -0.69454265 -0.30840427
000030 1c 9e 93 3e 2f 65 34 3f 93 7d e8 be a9 ac 71 3d
       0.28831565 0.70466894 -0.45408306 0.059002552

layer2.1.running_var f4 [16]
000000 d9 b7 25 3f 19 1a d7 3e 30 d3 d1 3e 8e 73 08 3f
       0.64733654 0.42012098 0.40981436 0.5330132
000010 a2 a3 c3 3e 0b fd f6 3e a8 63 05 3f 18 03 03 3f
       0.3821078 0.4823993 0.5210519 0.51176596
000020 d6 03 b7 3e 89 f7 fc 3e 86 23 e5 3e 54 f3 fe 3e
       0.35745114 0.49407604 0.44753665 0.4979502
000030 16 b5 31 3f a1 85 e9 3e 26 b8 1e 3f b3 36 c9 3e
       0.6941694 0.45609763 0.6199974 0.39299545

fc.weight f4 [120, 400]
000000 f7 76 96 3c f4 64 a7 3c 4c b9 16 bd 8f a5 cb 3c
       0.018367274 0.02043388 -0.036797807 0.024859218
000010 f2 b1 75 3b f9 f0 50 3c c8 7d 9d bc 9f 7f a9 bc
       0.0037490097 0.012752765 -0.019225016 -0.020690737
000020 c0 81 b1 3c 28 58 57 bc b3 2b 1e bd c3 1f bd 3c
       0.021668315 -0.013143577 -0.038615894 0.023086434
000030 84 5b 5b bd 79 e3 4f bd c1 06 f8 ba 47 74 37 3d
       -0.053554073 -0.050754044 -0.0018922911 0.044788625
000040 23 0e 67 3c 18 1d 27 3c 93 72 e1 bc 2c b8 72 3c
       0.014102492 0.010199808 -0.027520454 0.014814418
000050 4a a1 03 bd 8e 6c 4e ba 6c 82 cb bc 82 61 20 bd
       -0.03213624 -0.0007874452 -0.024842463 -0.03915549
000060 f9 69 ea bc 0a 06 69 bc 6f bd f1 bb a8 4f 03 bd
       -0.028614985 -0.014222631 -0.0073773186 -0.032058388
000070 0c 72 8b 3c cb 97 21 3d ce 02 7c ba 91 2c 5d bd
       0.017022155 0.0394514 -0.0009613455 -0.05399758
000080 17 f8 3f bd fe 54 5d bc 03 9a 18 3c fa 89 e2 3c
       -0.046867456 -0.013509033 0.009314063 0.027653683
000090 aa c1 08 3d 81 0e f3 bc d0 83 48 bc 75 f2 21 3b
       0.033387817 -0.029670002 -0.012238458 0.0024711166
0000a0 1e ac 47 bd 2f 6e 49 bc 7e 6c ff bc d4 0a 11 bc
       -0.048748128 -0.012294336 -0.031179663 -0.008852679
0000b0 17 df 96 3b 3e e1 21 bc d8 2b 13 bc 62 e5 5e 3c
       0.004604231 -0.009880362 -0.008982621 0.013604494
0000c0 ac e7 5f bd 3e 9b 21 ba fa ab 7b 3c 61 29 0d bd
       -0.0546643 -0.00061647955 0.015360827 -0.03446329
0000d0 20 3c 13 3d 6d de 2a 3c 71 42 e5 bc 10 f9 ce 3c
       0.03594601 0.010429007 -0.027985783 0.025265247
0000e0 90 3f 37 3d 22 b3 d9 bc fb e1 16 bd 27 5a d2 3c
       0.044738352 -0.026574675 -0.036836606 0.025677754
0000f0 38 e7 b0 bc 70 f0 e0 3c f2 7b 36 bc ae 42 4f bd
       -0.021594629 0.0274584 -0.011137949 -0.0506007
000100 69 89 ad bc f1 36 ab bc 9b 70 5e bd d8 31 f8 bc
       -0.021183686 -0.020900222 -0.054306608 -0.030297205
000110 c5 24 cd b8 99 f2 36 bd 3e fa 65 bd c8 24 31 3d
       -9.7820106e-05 -0.044664953 -0.056146853 0.043247968
000120 bb 2a 14 3d f3 65 44 bd 05 ef fb 3c 78 b9 8e 3c
       0.036173563 -0.04794879 0.030753622 0.017422423
000130 8d ee 3c 3b 6c f0 00 bc 9a dc 4d bc 38 af 14 3d
       0.002882871 -0.007869821 -0.012564803 0.036299914
000140 59 29 26 3d 51 50 75 bc 08 b4 cb 3c c6 3e 26 bd
       0.040566776 -0.014972762 0.024866119 -0.04058721
000150 d9 8f 84 3c 1f 7d 89 bc 9c b0 0c 3c a5 88 b0 bc
       0.016181873 -0.016783295 0.008587029 -0.021549532
000160 38 47 55 3c 98 2e 34 bb 1a b8 ba 3c 6e 7e 13 bd
       0.013017468 -0.0027493592 0.022792865 -0.036009245
000170 b0 59 fe bc ba 86 e7 bc de 15 a6 3c be f9 a9 3c
       -0.031048626 -0.028262485 0.020274099 0.02074897
000180 64 77 b5 bc ea 5e 48 bd 4c 96 02 bc 8e 6c 68 3c
       -0.022151656 -0.048918642 -0.007970404 0.014186038
000190 e6 7c c3 3c 2f 3a bf bc 29 21 b6 bc 96 21 a8 bb
       0.023863267 -0.023343174 -0.022232609 -0.005130957
0001a0 54 fd 86 3c 41 aa 36 bc 92 dd 0b bd 6e 02 e6 3c
       0.016478218 -0.01114899 -0.034146853 0.02807733
0001b0 fc 8e 5c bd 5f 7a 08 bd 60 a0 2a 3d 01 6f 55 bd
       -0.053847298 -0.033319827 0.04165685 -0.052107815
0001c0 88 8e 3b bd 33 fc 16 3d 15 41 12 3d 3e 00 18 bc
       -0.045790225 0.03686161 0.0357066 -0.0092774015
0001d0 9e ab fc bc c5 e3 bb bc c0 93 08 3d 38 bd d8 bc
       -0.030843552 -0.022935757 0.03334403 -0.026457414
0001e0 c1 4b 47 bd 1a 9f b9 bc 5c fc ca bc e7 e5 a5 bb
       -0.04865623 -0.022658873 -0.024778537 -0.005062807
0001f0 30 86 13 3d 0e 36 4a bd 55 c8 19 3d 98 e3 05 bd
       0.036016643 -0.049367957 0.037544567 -0.032687753
000200 75 d4 e1 3c c8 95 a6 3c 72 9b 73 bc 43 67 09 bd
       0.027567128 0.020335093 -0.014868604 -0.033545744
000210 a1 d0 34 bd 3a 12 08 3d 5a ee c6 3a c5 7c 8d 3b
       -0.044144277 0.033220507 0.0015177235 0.004317852
000220 24 92 01 bd f7 0c 96 bc 9e be 53 bd 11 0c 77 bc
       -0.03163351 -0.018316729 -0.05169546 -0.01507856
000230 e1 b4 02 bd 97 15 10 3d 0e 4a 24 3d ca fe 87 ba
       -0.03191078 0.03517684 0.040109687 -0.0010375616
000240 3b e8 14 3c ee 0d 1c bd 39 88 d8 b8 fc d4 3c bd
       0.009088571 -0.038099222 -0.00010325056 -0.046101555
000250 06 ee f3 3c b4 26 6d bc a7 5c 55 bd 6b 18 ab ba
       0.029776584 -0.01447456 -0.052090313 -0.0013053542
000260 da 2c 1c bd 5b b7 c3 bc 30 ee e3 3b 6e f1 2e bb
       -0.03812871 -0.023891142 0.0069558844 -0.0026694196
000270 5a 9e d7 bc be 01 95 3b 90 59 66 bd 35 29 e7 bb
       -0.026320625 0.004547327 -0.056237757 -0.007054473
000280 96 8e 12 3d c9 b7 28 bc a5 d6 2d bd af f9 c8 3c
       0.03578051 -0.010297724 -0.04244103 0.02453312
000290 17 c5 16 3d 6b e9 c9 bc 2b b6 d7 3c bb 0b d5 bb
       0.036809053 -0.024647435 0.026331982 -0.0065016425
0002a0 10 c0 dd bb 41 ce 13 bd 8d 04 9d 3c 53 17 2d bd
       -0.0067672804 -0.03608537 0.019167209 -0.04225857
0002b0 a0 ba 44 bc 8d bf a2 3c 89 5b 4b bd e0 21 f9 3c
       -0.0120073855 0.01986673 -0.04964784 0.03041166
0002c0 c5 46 99 3c 46 cf 31 bd 62 32 19 3d bd 55 1f bd
       0.018710503 -0.043410562 0.037401564 -0.038900126
0002d0 fa 2b ad 3c 07 5b af bc d3 5d 8b 3c 23 00 48 3d
       0.021139134 -0.02140571 0.017012512 0.048828255
0002e0 2a 87 b0 bc 89 97 43 3c 6b ff a8 3c 04 1d 06 3b
       -0.021548826 0.011937984 0.020629605 0.0020464072
0002f0 71 d2 02 bd 03 93 3a ba 2b 89 fa bc 10 99 57 bd
       -0.031938974 -0.00071172434 -0.030582985 -0.052636206
000300 0d 83 09 3d e6 77 39 bd 41 cc 61 bb 7a 0c 1c bd
       0.033572245 -0.04528036 -0.003445402 -0.038097836
000310 e8 2a bc bc ed f6 5d bd 9f 51 a2 3c 41 df ae bc
       -0.022969678 -0.054190565 0.01981431 -0.02134669
000320 f4 d0 18 bd fe 97 b3 3c 07 dc d6 bc a6 2f 13 3d
       -0.03730865 0.021923061 -0.026227964 0.035934113
000330 2d 59 f5 3c 64 8b 93 bc 2b ea fa bc 20 1a c8 3c
       0.029949749 -0.018010803 -0.030629238 0.02442652
000340 7c 3b 17 bd 09 a8 20 bd d5 57 0a 3d c7 27 a5 bc
       -0.036921963 -0.03922275 0.03377517 -0.020160569
000350 18 f7 72 3c 71 68 4a bd b9 ed fa bc 60 28 b5 bc
       0.01482942 -0.04941601 -0.030630933 -0.022113979
000360 3e 7e 29 bd 27 de 59 3b cb 3d 69 3b 34 d4 02 bd
       -0.04138016 0.0033243985 0.003558981 -0.031940654
000370 75 a5 09 3d 14 46 3d bd 94 04 20 bd b8 ea 03 bd
       0.033605058 -0.04620941 -0.039066866 -0.032206267
000380 fa b4 44 bd 51 6b 06 3b 10 3b f2 bb 7a 97 ff 3b
       -0.048024155 0.0020510743 -0.0073922947 0.00780004
000390 73 42 d5 bc ad 48 cc bb 53 54 e5 3c fb 8c 78 bc
       -0.026032662 -0.0062342496 0.02799431 -0.015170331
0003a0 63 a0 61 bd 22 ec 33 bd d6 1c f2 38 c2 33 0e 3d
       -0.055084597 -0.043926366 0.0001154483 0.03471733
0003b0 84 6e 20 3d a4 a5 11 3d 50 c8 d7 3c 57 9f e7 3b
       0.039167896 0.035558358 0.026340634 0.0070685553
0003c0 d5 6d bc 3b 86 00 40 bb 53 11 f2 3b 97 a9 59 bc
       0.0057503977 -0.0029297187 0.007387319 -0.013285062
0003d0 c3 cd 54 3c c2 36 40 bd c7 7f 38 3d 8e 7f 01 3d
       0.012988511 -0.04692722 0.045043733 0.031615786
0003e0 7f f2 19 bb b2 4a 29 bd b4 b0 54 bd 91 2e 8c 3c
       -0.0023490486 -0.041331 -0.05192633 0.017112048
0003f0 d7 7b 44 bd 02 02 19 3d 4f 9f c7 3c 6d e4 6b bc
       -0.047969665 0.03735543 0.024367956 -0.014397723

fc.bias f4 [120]
000000 cb 94 46 bd 14 8e 30 bd ef ca 4d 3c a8 58 dd 3c
       -0.048481744 -0.043104246 0.01256059 0.027019814
000010 43 c7 31 bd f9 6f 08 3c 51 e6 06 bd 2c 11 14 bd
       -0.04340292 0.008327478 -0.03293449 -0.03614919
000020 df 2e c8 bc 4f 6d 04 3a ca 5b d4 3c 6f cd 91 bc
       -0.024436412 0.00050516886 0.025922675 -0.017798154
000030 18 d4 cb bb 95 1a 52 ba 27 17 df bb 63 f5 b0 3b
       -0.006220352 -0.0008014825 -0.00680818 0.005400346
000040 8f 77 ec bb c3 83 bf 3c 5b 01 c2 3b b7 57 9f bc
       -0.007216401 0.023378259 0.0059205717 -0.019451005
000050 92 d3 ba 3c 3b a0 d5 3b a0 42 c0 bc 2f 7b 3e bd
       0.022805963 0.006519345 -0.02346927 -0.046504196
000060 10 d2 09 bb d8 22 ba bb 60 93 28 3c ef bb 0d bd
       -0.0021029748 -0.005680423 0.010289043 -0.034603056
000070 ea 8b ce bc de 36 22 bd 5e 74 34 3c fa 4d ee bc
       -0.0252132 -0.039603107 0.011014072 -0.029089916
000080 35 58 4f bd c3 9e 4e 3d 78 66 5a bc 65 ad 0f 3d
       -0.05062123 0.050444376 -0.0133300945 0.03507747
000090 22 c1 ec 3c 34 72 36 ba 87 51 41 bd bd b2 83 3d
       0.028900687 -0.00069597666 -0.04719689 0.06430576
0000a0 2c b5 f9 3c 1b dc 25 bd e4 be a0 bc 57 9c 95 3c
       0.030481897 -0.040493112 -0.019622274 0.018263025
0000b0 80 a6 89 3c 6e 7a 80 bd 9f 97 66 bd a9 31 56 3d
       0.016803026 -0.062733516 -0.05629694 0.052293453
0000c0 68 16 69 bc d5 91 55 bd 9a 3b 3c bc b0 00 4d 3d
       -0.0142265335 -0.05214103 -0.0114888195 0.050049484
0000d0 de c1 6d bd 96 97 4e bd fa 88 2b bb 75 f3 fa bc
       -0.058046214 -0.050437532 -0.0026174174 -0.030633667
0000e0 3f 71 f5 bc f8 d8 1b 3d 0a ee 2a bd 36 58 06 bd
       -0.029961227 0.038048714 -0.041730918 -0.03279897
0000f0 67 70 d1 3c 14 fa 70 bc e1 b7 37 bd 5b 0c d3 bc
       0.025566293 -0.014708061 -0.044853095 -0.025762727
000100 b2 c3 13 bd 49 06 7d 3b cb ae ff 3c 5a f4 3f bc
       -0.0360753 0.0038608483 0.031211277 -0.011715973
000110 99 02 5e bd 47 e0 4c 3d 55 44 8c 3c 3e 00 2f bc
       -0.054201696 0.050018575 0.017122427 -0.01068121
000120 7e 2f 0f 3d 90 e8 38 bd c2 8b 8d bb cd 92 58 3d
       0.0349574 -0.045143664 -0.004319639 0.052874375
000130 59 1c 2b bd 53 01 b9 bc 1b 74 36 bc e9 c6 19 bd
       -0.04177508 -0.02258364 -0.01113608 -0.03754321
000140 25 57 1b bd 6d 57 e1 3c 57 c9 77 b8 10 f5 1b bd
       -0.037924904 0.027507508 -5.90769e-05 -0.038075507
000150 e0 4b f0 b9 8e a5 ac 3b 2b 13 41 3c 27 30 3b bd
       -0.00045832898 0.005268759 0.011784355 -0.04570022
000160 66 cb a3 bc 0a d2 13 bd 9b 83 ce 3c 4c 4a bc 3c
       -0.019994449 -0.03608898 0.025209239 0.022984646
000170 a1 c8 2f bd 42 27 e9 bc a1 4c 61 3c a1 7a 08 3d
       -0.042915944 -0.028461102 0.01375118 0.033320073
000180 28 18 2d bd 4f a1 a4 bc 41 d7 0f 3b 32 f0 7f 3c
       -0.042259365 -0.02009645 0.002194837 0.015621232
000190 fd 06 d8 3c 8c 8b 42 3b f9 d6 d4 bc b5 2b 21 bb
       0.02637052 0.0029685227 -0.025981413 -0.0024592702
0001a0 31 d5 2d bd e5 fa 07 3d 3e fc fa bc 95 eb 1b bd
       -0.042439643 0.033198256 -0.030637857 -0.038066465
0001b0 8f c9 15 3c 18 77 d5 3c 7c 12 f2 bb 4c e9 90 bb
       0.009142294 0.026057765 -0.0073874574 -0.0044223424
0001c0 ef 71 eb bb 14 56 74 3c 48 da 10 bd 44 90 86 3b
       -0.007185213 0.014913101 -0.03536442 0.0041065533
0001d0 66 36 51 bd de c7 63 3d f4 bc 2f 3d 3d 81 5f bb
       -0.05107727 0.05561053 0.04290481 -0.0034104132

fc1.weight f4 [84, 120]
000000 e6 f4 11 3c d2 0c 98 3c 32 df 23 bd 28 b8 ec 3d
       0.008908486 0.0185608 -0.040007778 0.115585625
000010 8e 9a 74 3c 97 a8 c5 bd 0f d7 8e bd 51 b8 1a 3c
       0.014929427 -0.096512966 -0.06974613 0.0094433585
000020 93 31 be 3d 73 65 61 bd 92 01 9f bd 81 07 9a 3d
       0.09286799 -0.05502839 -0.077639714 0.075209625
000030 d0 71 c3 bc 26 d5 4a 3c ac 82 56 bd 29 76 78 3d
       -0.023857981 0.01237992 -0.052370712 0.06065956
000040 c5 f8 8d 3d a6 20 af bd ad bd 40 3d 3b 5c b4 3d
       0.06932215 -0.08551149 0.04705589 0.08806654
000050 d1 14 38 3d 9e 9a 15 3c aa 50 17 3d c9 1b 1a be
       0.044941727 0.009131102 0.03694216 -0.15049662
000060 48 9f a9 bd 25 e6 d6 bd e0 ab 6b bd 1d 9b 8f 3d
       -0.082823336 -0.10493115 -0.05753696 0.070120074
000070 da d8 51 bd 2d 92 d7 bd 20 ba 12 bd c2 7f a4 3d
       -0.051232196 -0.10525928 -0.035822034 0.0803218
000080 5d d7 90 bd fd 04 e2 bd 94 fa 23 3d 95 46 ec 3d
       -0.07072327 -0.11036108 0.04003389 0.115369
000090 81 7b 43 3d 0e bd 57 bc 94 70 87 3d 2c fb bc bc
       0.047725204 -0.013167633 0.066132694 -0.023068987
0000a0 ed fe e7 3b db 5b fa 3d 32 29 59 3b b3 1c 96 3d
       0.00707995 0.12224551 0.0033136127 0.07329693
0000b0 cd 29 e5 3d 25 f1 2f bd 84 81 ea 3d 24 19 e0 3d
       0.111896135 -0.042954583 0.114504844 0.10942295
0000c0 23 ea 9b bd 03 13 1b 3e 22 df ba 3d d4 ab 25 bd
       -0.076130174 0.15143971 0.091245905 -0.04044707
0000d0 e9 56 32 bc 26 dd dd bb 04 7a 17 3e 09 ec 89 3d
       -0.010884979 -0.0067707477 0.14792639 0.06734473
0000e0 5c 1e 1e bb c5 4d e9 bc fe eb 1b 3e c5 4a 0e bc
       -0.0024126982 -0.028479466 0.15226743 -0.008684819
0000f0 1f 30 7e bc d1 60 72 3d f7 74 66 3d 7a b9 c4 bc
       -0.015514403 0.059174363 0.05626389 -0.024014223
000100 d2 e8 b9 3d a9 86 a8 bd 33 27 bf 3d ae 15 20 bd
       0.0907761 -0.082288094 0.093336485 -0.039083175
000110 c2 5b 6e 3c 24 98 c0 3d cf 19 39 3d e8 14 71 3b
       0.014548244 0.094040185 0.04519063 0.0036786143
000120 8a 06 d0 3d 0b d6 93 bd 90 43 f3 bc 98 b8 ca bc
       0.10157497 -0.0721856 -0.029695302 -0.024746224
000130 b5 55 63 3d db 80 49 bc e5 1b b3 bd 52 50 80 bd
       0.05550166 -0.012298788 -0.08745555 -0.0626532
000140 b5 7e 7d bc 73 25 2c be da 3a 90 3d 8d f7 29 3d
       -0.015472104 -0.1681116 0.07042475 0.04149585
000150 39 d6 e4 3c fe 3f 1b bd d5 fa 41 bd 45 63 a8 bc
       0.02793418 -0.037902825 -0.047358353 -0.020555148
000160 f1 42 4f bc af d0 60 3c 64 1f bc 3d 97 7b a2 3d
       -0.012650237 0.013721629 0.09185675 0.07933729
000170 a2 8a 39 3d 7a 88 58 bc 84 23 c4 3c e4 20 64 bd
       0.045298226 -0.013216132 0.023942716 -0.05569543
000180 b9 18 b1 bb d2 90 6a 3d 4d 5a e3 bd 83 96 39 bd
       -0.0054045585 0.057267018 -0.11101208 -0.045309555
000190 06 74 d6 3c b6 64 2e 3d 8d 2d aa 3d 0c 97 07 3e
       0.026178371 0.042576514 0.08309469 0.13241214
0001a0 7d bd 47 3d d1 e8 9b bd 10 90 7f 3d 47 b2 ae bd
       0.048764694 -0.076127656 0.062393248 -0.085300975
0001b0 2e 95 47 3b e9 52 46 bd 54 75 02 3e 0f bb 3d bd
       0.0030453908 -0.048418913 0.1274007 -0.04632097
0001c0 b0 06 fb 3c e0 e2 a9 bd ee 8d 25 3d 8a 89 e9 ba
       0.030642837 -0.08295226 0.040418558 -0.0017817479
0001d0 e7 6f a5 bd 14 a3 03 3c de 5b aa 3d 90 eb d7 3c
       -0.08077984 0.008034486 0.083183035 0.026357442
0001e0 bc 5d 8e bc 73 d6 a2 3d 86 c1 1b bd 49 c6 a0 3d
       -0.01737868 0.07951059 -0.038026355 0.0785032
0001f0 bb 9f 50 3d f5 e6 ba bc f9 c3 3e 3d 77 dc 32 3d
       0.05093358 -0.022815207 0.046573613 0.043667283
000200 60 1e 28 3d 69 9a 2d 3d 1d f7 a5 bd ce 48 ad bd
       0.041044593 0.042383585 -0.08103774 -0.08461152
000210 af e1 a6 3d ba 4d a4 bc 15 a1 9a ba 21 03 b0 bd
       0.081485145 -0.020056594 -0.0011797274 -0.08594347
000220 cc 4d 98 3d 38 e6 c9 3d e1 ba 3e 3d 86 a1 85 3d
       0.074367136 0.09858364 0.04656494 0.06524949
000230 9a 39 7c 3d fb b3 7a bd 1b 3a a1 3d 6b 7e d0 3c
       0.06157837 -0.0612068 0.07872411 0.025450906
000240 76 d3 7b 3c 8b 8b 1c bc a1 53 f8 3b b8 c7 0c bc
       0.01537024 -0.009554754 0.0075783287 -0.008592539
000250 db a6 04 be 57 c5 b1 3c eb 0e b3 3c 37 f6 9d 3d
       -0.12954275 0.021700544 0.0218577 0.077129774
000260 39 76 21 bd 05 a8 19 bc 42 4c 34 3e 4c d2 db 3d
       -0.039419387 -0.009378438 0.17607215 0.1073347
000270 7c 93 0c 3e b5 8d 9e 3d d3 1c 01 3c fb 8a 79 bd
       0.13728136 0.07741872 0.007880407 -0.060923558
000280 6a 30 e9 3d c0 0c 51 3d b2 f3 b3 3d 3d f9 2f bd
       0.113861874 0.05103755 0.087867156 -0.0429623
000290 ed 3d 01 3e 22 ed 53 bd 82 9e c4 3d 59 b0 21 bd
       0.12621279 -0.05173982 0.096005455 -0.03947482
0002a0 1f 49 b6 bd e7 7f b3 3d 2e 60 df 3d 2b 35 25 bd
       -0.089006655 0.0876463 0.10907017 -0.040333908
0002b0 91 56 95 3d 02 0e 80 bd 99 8e 15 3e 9b b1 95 3d
       0.07291902 -0.06252672 0.14605178 0.07309266
0002c0 2a 53 97 3d e6 6a a3 bd 42 50 e3 3c 74 1a 82 3d
       0.07388909 -0.07979374 0.02774823 0.06352702
0002d0 55 81 a6 bd 6d 69 85 3c 35 b1 c9 3c 86 e9 3b bc
       -0.08130137 0.016285622 0.024620632 -0.011469251
0002e0 73 09 66 3d 64 c7 9d 3d 70 81 08 3e 85 f3 3e bd
       0.056161355 0.07704046 0.13330626 -0.046618957
0002f0 31 1a 8b bd ef 27 a5 3d a5 83 4a bd ba c4 e8 3c
       -0.06792105 0.08064257 -0.049441952 0.028414119
000300 24 fd 2e 3e 88 52 93 bb dc 5a 5b bd 6b 07 1d 3c
       0.17088753 -0.0044959225 -0.053553447 0.009584288
000310 9b 78 e3 bc 22 8b 91 3c 36 c3 45 3d cc c1 b3 bd
       -0.02776747 0.017766539 0.04828187 -0.08777198
000320 99 87 0e 3e c1 87 e8 bd 1e e7 6a 3d 0d 1e a4 bd
       0.13918914 -0.11354018 0.057349317 -0.08013544
000330 21 91 b6 3d f3 5c b0 bd 8e 23 93 bd c7 2d 82 3d
       0.089144 -0.08611479 -0.07184516 0.063563876
000340 f1 02 68 bd d3 5e 7d 3d 4a 77 ce 3d 7e 8b 1a 3d
       -0.05664343 0.06185801 0.10081346 0.037730686
000350 ba 88 bf bd 0a 38 a1 3d 55 2b 83 3d 7c d0 0f bd
       -0.093522504 0.07872017 0.06404749 -0.035110936
000360 2a 87 b9 bd 8e 98 a1 3c 13 47 97 3b a3 0b a6 3d
       -0.090589836 0.019726064 0.004616627 0.08107688
000370 37 97 1c bd 72 f6 1b 3d 56 ce b4 3d 68 b4 1e 3e
       -0.038230147 0.038076825 0.08828418 0.15498507
000380 e6 cc 76 bd bf 5a cd bd 9f 79 65 3d 39 40 04 3d
       -0.060254 -0.10027074 0.05602419 0.03228781
000390 5a af 33 3d 47 03 28 3c c8 27 22 3e e9 92 f6 3b
       0.0438684 0.010254688 0.15835488 0.0075248373
0003a0 9b 1b 0c 3c 3e 2e 98 3d 3c 4c 60 bd 23 46 9a 3d
       0.0085515035 0.07430695 -0.054760203 0.07532909
0003b0 fc 53 9a bb 61 d3 94 3d ff 83 4b 3d 61 d4 88 bd
       -0.0047097187 0.0726688 0.04968643 -0.06681133
0003c0 bf 6e 4f 3d 6f 64 69 3d ad 8f 93 3b 9b fc 2d bd
       0.050642725 0.056980547 0.0045032115 -0.04247723
0003d0 3c 82 2c bc 3c d8 a9 bd da fd e2 bc eb b9 5f 3d
       -0.010529097 -0.082931966 -0.027708936 0.054620665
0003e0 d0 35 9a 3d 00 df 47 3d 0f b8 0b 3d af c8 17 3d
       0.07529795 0.048796654 0.03411108 0.03705662
0003f0 33 ff 9b bd 3b 17 80 3d 27 f9 be 3c 70 a9 9f 3b
       -0.07617035 0.06254431 0.023312164 0.0048724934

fc1.bias f4 [84]
000000 f8 db b5 bc 00 ff 43 bd 5a 94 31 3b c1 18 ac bd
       -0.022199616 -0.04785061 0.002709648 -0.08403159
000010 d0 27 dc 3a c9 0e 09 3d c5 f5 b3 3c 5d c9 91 3d
       0.0016796533 0.033461366 0.021967778 0.07118485
000020 fb 0b ea bc 17 8c 51 bd 2b 84 1c bd 07 cf d9 bd
       -0.028570166 -0.05115899 -0.038211983 -0.106351905
000030 6d c1 d6 bd 81 e3 00 3e 46 89 87 bd e4 70 bf 3c
       -0.10486112 0.12586786 -0.0661798 0.02336926
000040 91 f6 a9 3d 52 4a 81 bc cf 6d 2e 3d fc b4 b4 3d
       0.08298982 -0.015782509 0.04258519 0.088235825
000050 c6 3f de 3d 91 c6 ba bc 6d d0 bf bd 4f a3 33 3d
       0.108520076 -0.022799762 -0.09365926 0.043856915
000060 6b d9 fc 3c ce 2a dc 3d 72 e0 97 bc de 41 86 3d
       0.030865392 0.10750352 -0.018539641 0.06555532
000070 19 fa 90 bc e6 e9 53 bd 18 6f b1 3d 1c 78 fc 3d
       -0.01769738 -0.051736735 0.086637676 0.123275965
000080 6d fa b3 bd 04 85 9a bd cf ad d8 3c 0a 0c 03 3d
       -0.08787999 -0.07544902 0.026450066 0.031993903
000090 68 e9 f5 3a 90 65 0b 3b e5 45 5b 3d de 3f ac 3d
       0.0018761577 0.0021270253 0.053533453 0.08410619
0000a0 47 fe e7 3d c7 41 e5 bd 54 f4 43 3d 28 61 8a bd
       0.113277964 -0.11194187 0.04784043 -0.06756812
0000b0 6e 36 d3 3d d9 02 1b 3d 35 50 60 3d 8b 76 ba 3c
       0.10313116 0.037844513 0.05476399 0.022761604
0000c0 aa 74 b9 bd 06 95 a3 bc 71 7f bb bc 68 3b 86 3c
       -0.09055455 -0.01996852 -0.022887917 0.016385749
0000d0 4d 44 c1 bd 05 df 6d bd c4 ac 81 3c bc 28 17 bd
       -0.094368555 -0.058074016 0.015829451 -0.03690408
0000e0 d9 20 f5 3a 21 88 c4 bd a1 b0 7d bd 75 fe bf 3c
       0.0018701806 -0.09596277 -0.061936025 0.023436764
0000f0 71 26 01 3d cf ae e6 bd 1c 4b 67 bd 6d 8c 52 bc
       0.0315308 -0.11263811 -0.056468114 -0.012850863
000100 b6 ca 00 bd 35 b6 c2 3c a1 af 58 3b d3 71 a5 3d
       -0.03144332 0.023768524 0.0033063667 0.08078351
000110 d4 66 b8 3c 41 71 fe bd b8 03 a0 3c 42 6b 8d bd
       0.02250997 -0.12423945 0.019533023 -0.069052234
000120 79 c7 f2 3d 4f 7a d0 bd 68 f6 9c 3d 59 ca 04 be
       0.11854453 -0.101795785 0.07664186 -0.12967815
000130 be bc 24 3d 17 56 6a bd a2 ef 58 bd df 6a bd bc
       0.04021906 -0.057211008 -0.052962907 -0.02312225
000140 1a 88 ee 3c fc f6 a2 bd 1d 7a 23 3e a8 cc df b9
       0.029117633 -0.07957265 0.15964551 -0.00042686355

fc2.weight f4 [2, 84]
000000 7b f2 06 be 59 84 22 be cd 05 a6 3c 26 88 8d bd
       -0.13178436 -0.15870799 0.020266438 -0.06910734
000010 97 fc 42 3e f7 12 f0 bd bb 96 7a 3c bf 63 6c 3e
       0.19041668 -0.11722367 0.015294726 0.23084925
000020 c3 ce 97 bd 6a 17 ac bd 92 14 01 3e b9 96 c6 bd
       -0.074124835 -0.084029034 0.12605503 -0.09696717
000030 32 ae 92 3d 34 e3 2e 3e 8a 66 34 be 9d e4 f1 3c
       0.07162131 0.17078859 -0.1761724 0.029527957
000040 7d 3d 0a 3e ce ff 8e 3d d2 43 c1 3d d1 d3 5a 3e
       0.13500018 0.069823846 0.09436764 0.21369864
000050 39 8b 38 3e 75 72 06 3e e3 1d 4c 3d 97 ef 6e 3d
       0.18021859 0.131296 0.04983319 0.05833396
000060 ab a5 48 bc ae 71 b3 bd 17 62 df 3c 33 3c d6 bd
       -0.01224653 -0.08761917 0.027268453 -0.10460701
000070 a2 4f 39 bd 0e 1e 3d bd 4e 0c 17 3e 03 09 07 3e
       -0.04524196 -0.04617124 0.14750788 0.13187031
000080 f9 44 c9 3b d4 1c a4 3d 97 2a cc 3d 23 6a 11 bd
       0.0061422554 0.08013311 0.09969061 -0.03550161
000090 b8 74 f1 bc d6 80 cc 3d 31 43 f2 3b 77 d8 4d 3e
       -0.029474601 0.09985511 0.0073932637 0.20102106
0000a0 9d ce 2a 3e 73 48 6f bc c0 42 44 be 69 86 34 be
       0.16680379 -0.014604676 -0.19166088 -0.17629398
0000b0 13 38 30 3e 43 64 53 be 85 a7 11 3e 64 96 ec bd
       0.1720889 -0.20643716 0.1422406 -0.11552122
0000c0 78 50 43 3d bb d1 a6 bd 22 1e 03 be af 6c 98 3c
       0.047684163 -0.08145472 -0.12804464 0.018606512
0000d0 87 c5 9d 3c d4 f6 0e 3e 21 88 50 3e 8c 39 ce bd
       0.019259227 0.13961345 0.20364429 -0.1006957
0000e0 29 02 ac bd c5 f0 97 3d 01 16 9b bd ce 09 2e 3e
       -0.083988495 0.0741897 -0.07572556 0.16995928
0000f0 e8 80 28 be f1 e4 2e 3c a1 54 d5 3d 19 a5 0f 3e
       -0.16455424 0.010674701 0.10416532 0.14027824
000100 3a 98 73 bc a3 02 2f bd 59 2f 4f 3d ea e8 0b 3d
       -0.014867837 -0.042727124 0.050582264 0.03415767
000110 96 66 7d 3d 15 44 a4 bd 92 99 8d bd 15 65 4d be
       0.06186541 -0.08020798 -0.06914057 -0.20058091
000120 f0 1a 13 3e 24 1a 06 3b ba e9 05 3c 50 0f 3b 3b
       0.14365745 0.0020462358 0.008173401 0.0028543063
000130 13 ea 58 3e 21 79 07 bb 88 c6 25 be eb a3 02 3e
       0.21183042 -0.0020671564 -0.16189015 0.12757842
000140 8b 24 96 3d 43 1a 04 bc 4c 81 ad 3d da 1f 78 bd
       0.07331189 -0.008062902 0.08471927 -0.06057725
000150 ef 25 1b 3e bf 59 b5 3d ff 43 e8 3c a2 5d 8b bd
       0.1515119 0.08855008 0.028352736 -0.068049684
000160 fb e1 d8 bd 78 d0 43 3e 76 bc 3c bd c9 8d 0b be
       -0.10589977 0.19122493 -0.046078168 -0.13628305
000170 fd e9 da bc b8 c1 a5 3d d1 27 03 be e2 23 b4 bd
       -0.026722902 0.080935895 -0.12808158 -0.087959066
000180 32 23 a6 3d 61 cf d0 bd 9c 25 3c 3e b0 91 17 be
       0.08112182 -0.101958044 0.18373722 -0.14801669
000190 60 11 28 be e6 8b 69 bd 3f 72 e5 bc 51 f3 4a be
       -0.16412878 -0.057018183 -0.028008578 -0.1981938
0001a0 f5 62 66 be e2 56 03 be 56 53 a4 3c 7e b0 91 bd
       -0.22498687 -0.12826112 0.020059269 -0.07113741
0001b0 9b fc 4f bc 7c 27 45 3e 52 af bc 3c d3 a9 4f bc
       -0.012694503 0.19253343 0.023032818 -0.012674767
0001c0 a5 d5 5e bd 08 cf 62 3b 51 9f dc bd b0 cc 80 bd
       -0.054402966 0.0034608264 -0.10772575 -0.06289041
0001d0 82 f8 1d bd 8d eb bd 3d e1 40 08 be 02 ff 60 3d
       -0.038567074 0.09273443 -0.13306 0.054930694
0001e0 e5 fa 0b bd de 3c 4a be f9 1e 1a bd a3 4e 32 be
       -0.03417482 -0.19749781 -0.037627194 -0.1741281
0001f0 45 33 42 be 07 b8 a2 bc e2 6c 1f 3e c4 e6 86 3d
       -0.1896487 -0.019863142 0.15568879 0.06586984
000200 fa 56 d0 bd 8a ba b3 3d f5 ef 82 bd b0 8c 41 3e
       -0.101728395 0.08775814 -0.063934244 0.18901324
000210 3d c9 5d 3d 53 67 2e 3e be 49 47 3e 5a 9f f0 bd
       0.054146994 0.17031603 0.19461724 -0.11749144
000220 9f e9 00 3e b9 54 0d be 57 3f 39 be 44 f3 4e 3e
       0.1258912 -0.1380185 -0.18090568 0.20209986
000230 f6 83 0a 3e 13 c7 b5 bd da 7b 45 3d 43 f4 43 bd
       0.13526902 -0.08875861 0.048213817 -0.047840368
000240 d8 e0 98 3c a9 51 88 bd 43 50 a8 3d 33 89 74 bd
       0.018661901 -0.066562004 0.08218434 -0.059701156
000250 29 7d 77 bc e8 ae bf bd 5b 13 67 3d c4 11 c9 bd
       -0.015105524 -0.093595326 0.056414943 -0.09817842
000260 f1 28 03 be 4d 66 98 bd 0a 3a 8a 3e 6a 20 e4 3d
       -0.12808587 -0.07441387 0.26997405 0.11138995
000270 f4 8d 97 bd b5 d6 aa 3d 07 f8 16 3e 83 ed c9 3a
       -0.07400122 0.08341733 0.14743052 0.0015405867
000280 74 7a fc bd 2a 03 10 bd a3 ec 3f 3e ef 31 0a be
       -0.123280436 -0.035159267 0.18742613 -0.1349561
000290 1d 25 14 3d 26 23 fd bc 4f 45 32 be b6 c6 51 3e
       0.036168206 -0.03090055 -0.17409252 0.20485958

fc2.bias f4 [2]
000000 80 9a be 3d 7a d4 84 bd
       0.09306812 -0.06485839
